tensorflow-code/tiny_conv_models/float_tiny_conv.tflite (tflite, 68356 bytes, 4 tensors)

first_bias f4 [8]
0.008521492 -0.008581106 -0.040322784 -0.020801576 -0.08731866 0.010185386 -1.3639957e-06 -2.7511485e-06
00000000: ba9d 0b3c c497 0cbc 8129 25bd 1168 aabc
00000010: 20d4 b2bd 9be0 263c 8912 b7b5 5fa0 38b6

Conv2D f4 [8, 10, 8, 1]
-0.04269619 0.03252357 0.02212497 0.05265646 0.010527388 0.0010147269 -0.03718691 -0.009747945
-0.04944015 0.030248038 0.025567746 0.053678054 -0.00403762 -0.008378199 -0.048252665 -0.01175697
-0.03305177 0.019046351 0.021878581 0.032189596 0.0018407622 -0.006888414 -0.059397124 -0.021687673
-0.0146948 0.02881746 0.026441338 0.042640902 -0.016017376 -0.015626477 -0.07008314 -0.010304542
-0.021753298 0.040048473 0.01656285 0.034850612 -0.03747359 -0.027482113 -0.0409799 0.012485408
-0.012657486 0.04837536 -0.004322496 0.01909627 -0.04110433 -0.032467064 -0.029245436 0.0210443
-0.009333584 0.02391842 -0.010348277 -0.009124945 -0.035009913 -0.0335839 -0.0032715283 0.035997946
-0.033177078 0.0064830207 -0.04121144 -0.03650351 -0.044276908 -0.026503583 -0.009658763 0.04065064
-0.020299885 -0.023086628 -0.056602374 -0.059548926 -0.04126013 -0.02435675 -0.02317219 0.03536281
-0.023977716 -0.041077692 -0.055757623 -0.04391208 -0.03560769 -0.021811184 0.0069975774 0.03685326
0.04138917 0.0275096 0.010586991 0.027197316 0.0121568665 0.0015971167 -0.024752848 -0.053397693
0.027568078 0.024821648 0.013658975 0.0117182955 0.020365791 -0.0023252869 -0.020698396 -0.055662945
0.039331656 0.028118627 0.012409573 0.018860837 0.019284448 -0.0034982252 -0.042114127 -0.06018567
0.051732413 0.020173635 0.031832397 0.0056839567 0.009483753 -0.00889639 -0.06781397 -0.061448477
0.05442496 0.025567094 0.019506617 0.017283866 -0.0019429725 -0.009360288 -0.076083146 -0.061111264
0.05066391 0.038452778 0.02514528 0.01743807 -0.018845344 -0.030514283 -0.062061995 -0.03676064
0.030925881 0.029866787 0.0013388384 -0.01704127 -0.042955924 -0.037466176 -0.040452346 -0.025313603
0.009086963 0.007085637 -0.018825738 -0.031076537 -0.04493292 -0.03101634 -0.029612212 0.016916852
-0.02524679 -0.020769753 -0.042837176 -0.06271447 -0.027031694 -0.04033574 -0.028164227 0.004304111
-0.022926375 -0.03884821 -0.04376348 -0.052360047 -0.035980284 -0.011836175 -0.01107186 0.020565286
-0.047613505 0.010547333 0.015475911 0.016610205 0.053027336 0.014560922 0.042251952 -0.033076618
-0.064629465 -0.027919011 0.0031035298 -0.004292773 0.05101269 0.008176666 0.06637579 -0.0091530895
-0.0660388 -0.038458925 -0.025565274 -0.02522216 0.04568524 -0.008405788 0.07790137 0.015792085
-0.07417062 -0.0412064 -0.040420666 -0.032289483 0.03990502 -0.0017600356 0.08364822 0.036306422
-0.06232428 -0.043490916 -0.04976903 -0.0437629 0.023074768 0.0004346851 0.07245446 0.04534493
-0.05046309 -0.033689607 -0.056832377 -0.036857005 -0.0010498727 0.0035978681 0.063336216 0.05352778
-0.056410752 -0.021051463 -0.069248915 -0.040110737 -0.0070449486 -0.0015200044 0.04901815 0.049766473
-0.066194 0.0021568749 -0.04489263 -0.03747244 -0.016920952 0.00070203596 0.030626098 0.05152626
-0.060230263 3.2790947e-05 -0.047763225 -0.040812124 -0.025935343 -0.004821509 0.022443065 0.031111807
-0.062128976 0.008845117 -0.056595135 -0.050432853 -0.014293001 -0.024481779 -0.00040751733 -0.00023550242
0.05808568 0.008569485 0.077879034 -0.026968434 0.03836271 -0.06141725 -0.02317524 -0.12045562
0.014449773 0.004732549 0.075940475 -0.00086780736 0.08761735 -0.038982216 0.037271846 -0.071681686
00000000: 33e2 2ebd 6f37 053d 6d3f b53c 4dae 573d
00000010: 117b 2c3c 9600 853a 4d51 18bd d8b5 1fbc
00000020: c181 4abd bcca f73c 7373 d13c 85dd 5b3d
00000030: 034e 84bb b744 09bc 96a4 45bd 4ea0 40bc
00000040: 4b61 07bd 1807 9c3c b63a b33c 3dd9 033d
00000050: bb45 f13a 34b8 e1bb 664a 73bd 59aa b1bc
00000060: 75c2 70bc 9812 ec3c 819b d83c 3aa8 2e3d
00000070: df36 83bc 1903 80bc c087 8fbd 62d4 28bc
00000080: f933 b2bc de09 243d d0ae 873c 84bf 0e3d
00000090: e87d 19bd 2b22 e1bc 8ada 27bd 998f 4c3c
000000a0: 5861 4fbc 3e25 463d b9a3 8dbb c86f 9c3c
000000b0: 045d 28bd 2ffc 04bd 2094 efbc 1965 ac3c
000000c0: e4eb 18bc 90f0 c33c d28b 29bc cb80 15bc
000000d0: 8e66 0fbd 468f 09bd 2367 56bb 9572 133d
000000e0: b0e4 07bd 856f d43b 54cd 28bd b484 15bd
000000f0: b45b 35bd 0b1e d9bc ca3f 1ebc 4981 263d
00000100: f24b a6bc 2b20 bdbc e4d7 67bd 93e9 73bd
00000110: 6200 29bd cf87 c7bc 9bd3 bdbc 98d8 103d
00000120: ea6c c4bc 1541 28bd 1b62 64bd 27dd 33bd
00000130: 5fd9 11bd 5ead b2bc ef4b e53b 72f3 163d
00000140: b187 293d d05b e13c 0f75 2d3c e8cc de3c
00000150: 982d 473c 5856 d13a 7cc6 cabc 8ab7 5abd
00000160: 73d6 e13c c556 cb3c e5c9 5f3c 18fe 3f3c
00000170: 29d6 a63c d763 18bb af8f a9bc d4fe 63bd
00000180: 3b1a 213d 0959 e63c 8651 4b3c 0b82 9a3c
00000190: 6bfa 9d3c 7b42 65bb dd7f 2cbd 4085 76bd
000001a0: 5ee5 533d 2e43 a53c b062 023d 7c40 ba3b
000001b0: be61 1b3c 2ac2 11bc 0de2 8abd 66b1 7bbd
000001c0: b5ec 5e3d 1572 d13c 57cc 9f3c e596 8d3c
000001d0: 57ab feba e55b 19bc 7bd1 9bbd ce4f 7abd
000001e0: f684 4f3d a980 1d3d 79fd cd3c 49da 8e3c
000001f0: 8d61 9abc 17f9 f9bc b834 7ebd 5392 16bd
00000200: 4658 fd3c 31ab f43c f67b af3a 229a 8bbc
00000210: 8df2 2fbd 2276 19bd 5cb1 25bd 795e cfbc
00000220: 7ce1 143c a22e e83b 6f38 9abc 3994 febc
00000230: 950b 38bd fb15 febc 4f95 f2bc 3695 8a3c
00000240: 5bd2 cebc 5425 aabc 0976 2fbd 7270 80bd
00000250: 9271 ddbc 1737 25bd aab8 e6bc 8009 8d3b
00000260: 18d0 bbbc 4d1f 1fbd 5641 33bd 7d77 56bd
00000270: 1060 13bd 84ec 41bc bf66 35bc 8878 a83c
00000280: 6106 43bd b9ce 2c3c ad8e 7d3c 2012 883c
00000290: 3133 593d ef90 6e3c 6210 2d3d 597b 07bd
000002a0: 745c 84bd 69b6 e4bc 9764 4b3b 64aa 8cbb
000002b0: aff2 503d 6cf7 053c 08f0 873d d7f6 15bc
000002c0: 5a3f 87bd 1b87 1dbd 446e d1bc b49e cebc
000002d0: 7220 3b3d 6eb8 09bc c18a 9f3d 675e 813c
000002e0: c4e6 97bd 0bc8 28bd 2490 25bd fa41 04bd
000002f0: 7273 233d ffb0 e6ba c24f ab3d 0bb6 143d
00000300: bf47 7fbd 8823 32bd 9cda 4bbd ba40 33bd
00000310: 4c07 bd3c 72e6 e339 0163 943d 9bbb 393d
00000320: 63b2 4ebd 1dfe 09bd 11c9 68bd 5ff7 16bd
00000330: e29b 89ba 36ca 6b3b 6bb6 813d f23f 5b3d
00000340: f60e 67bd 1e74 acbc 60d2 8dbd 284b 24bd
00000350: 50d9 e6bb e23a c7ba 41c7 483d eed7 4b3d
00000360: b890 87bd 5b5a 0d3b 56e1 37bd b47c 19bd
00000370: cf9d 8abc d608 383a 95e3 fa3c 330d 533d
00000380: 02b4 76bd 0389 0938 5fa3 43bd 9d2a 27bd
00000390: 5b76 d4bc c0fd 9dbb 85da b73c 30de fe3c
000003a0: f47a 7ebd 1ceb 103c 4dd0 67bd ae92 4ebd
000003b0: 312d 6abc 038e c8bc 0da8 d5b9 33f1 76b9
000003c0: 40eb 6d3d 0667 0c3c 0b7f 9f3d e8ec dcbc
000003d0: 3822 1d3d a890 7bbd 00da bdbc 70b1 f6bd
000003e0: bebe 6c3c 8013 9b3b ae86 9b3d 917d 63ba
000003f0: ba70 b33d d1ab 1fbd 5daa 183d d9cd 92bd

final_fc_bias f4 [4]
0.02335736 -0.016822457 -0.018118778 0.011583918
00000000: ef57 bf3c 40cf 89bc d56d 94bc 79ca 3d3c

MatMul f4 [4, 4000]
-0.011827119 0.002765627 0.005564437 0.010619359 0.005457245 -0.002070451 0.018126383 0.014046696
0.013926436 0.00038238647 0.007545952 -0.007070183 0.01741244 -0.013714033 0.0118916435 0.0056525203
0.0073934863 0.0028755912 0.004821322 -0.006418334 0.009893082 -0.0032577203 -0.0025875622 9.781925e-05
0.0033588596 -0.0031560475 -0.0076221284 0.0038959256 -0.0036503442 0.007466792 0.01033689 -0.013427857
-0.00528551 -0.005288604 0.014577857 0.008514833 -0.004339802 -0.0041344133 0.0042732516 0.0006894437
-0.006378498 -0.01423709 -0.014404602 9.86516e-05 -0.010847034 -0.007337279 -0.0066751335 0.006788497
-0.0028691625 -0.0066854996 0.00055210583 -0.010440664 0.003560506 0.0045993607 0.017818205 -0.0086790165
-0.0072522582 0.0021374794 -0.0010685932 0.0016346006 0.01083589 0.0068786903 0.004049497 0.006944182
0.0050237165 0.0019821639 -0.0070749535 0.0013155206 0.0054712906 -0.0047357893 0.006072119 0.00011884292
-0.003205004 0.018567847 -0.0027028574 -0.007861725 0.0074266624 0.005334874 -0.0015241912 -0.005787243
0.003624079 -0.008621442 0.012046391 0.013146455 0.0038907432 0.008170985 -0.014407652 0.0055326233
0.015050738 -0.002217841 0.0053784573 -0.005394951 0.003321117 0.0007968378 -0.0051545324 -0.0027437874
0.016164878 0.011442808 0.005643847 0.006618051 0.006706034 -0.0038038038 -0.0056556184 0.0088268975
-0.00827605 -0.016162736 -0.018552763 -0.011127621 -0.010880245 0.0012143874 0.0027303272 0.009885135
-0.016605591 -0.0046711653 0.013008311 0.009183233 -0.0019602412 0.0069636786 -0.0007840296 0.008753598
-0.0010013334 0.0071346094 -0.00774947 -0.01070577 0.014384811 0.005723523 0.008952388 0.0072361147
0.012368135 -0.000620197 0.0034047358 0.014626838 0.006903715 0.005093886 -0.011804816 0.006422394
-0.00017071796 0.01740019 0.017089268 -0.002308898 0.0023424379 0.0076452307 -0.0015290551 0.0034646136
-0.0011461384 0.013632401 0.001071627 0.008145893 0.0025572798 -0.004345512 -0.008877369 0.0027853302
0.006321205 0.011748801 -0.00053432817 0.012773789 0.0039682738 0.010360092 -0.0001379655 0.0015925477
-6.531448e-05 -0.0034550698 -0.0010349795 0.0036477235 0.008151459 0.00310551 0.0007402127 -0.004145134
-0.010272045 -0.0008482138 0.003708059 0.0012997293 0.019036803 0.007234201 0.0054648053 -0.0046498217
-0.017745454 0.00688569 -0.010382793 -0.01062262 0.01712569 -0.008068267 0.00034730526 -0.019173848
0.0010040625 0.0042144535 0.0022646454 0.0005358748 -0.012930942 -0.0112487115 -0.010049271 -0.0062061884
0.015415122 0.0068732216 0.009799254 0.0032076351 -0.008802488 -0.00483507 -0.0067677354 -0.005727882
-0.0065917876 0.00021129256 0.011549978 0.014513523 -0.015260475 -0.003188116 -0.008157891 -0.016055591
-0.0089379 0.016980324 0.015668558 -0.00583059 0.0030878158 0.004614871 -0.010167921 -0.00099212
-0.011876395 0.0074151685 0.0061805276 -0.007368198 -0.0033787976 -0.0021028852 -0.004237932 0.0055748574
-0.00795421 0.00018207464 -0.004151035 0.008159752 0.0056912443 0.0052338336 -0.00030752522 0.0027869747
0.0073908134 0.006841184 0.020799475 0.0044236057 -0.0036214972 -0.0014707895 0.0019257013 -0.003657098
-0.006088792 -0.011369077 0.00045513187 0.0014636198 0.0016360304 -0.008236256 -0.006131057 0.0033905862
0.0062110145 0.007832619 -0.014088568 0.003961527 0.011467778 -0.011419212 -0.0073503577 0.0045647114
00000000: 88c6 41bc 863f 353b e155 b63b d2fc 2d3c
00000010: b0d2 b23b 67b0 07bb c87d 943c 1d24 663c
00000020: b52b 643c 0b7b c839 0944 f73b feac e7bb
00000030: 89a4 8e3c d3b0 60bc 2bd5 423c c738 b93b
00000040: 0f45 f23b 6a74 3c3b 2efc 9d3b e350 d2bb
00000050: 9816 223c 7a7f 55bb 1794 29bb 4f24 cd38
00000060: 5020 5c3b b1d5 4ebb 0cc3 f9bb c952 7f3b
00000070: 9d3a 6fbb feab f43b 0f5c 293c 8400 5cbc
00000080: 1232 adbb 074c adbb f7d7 6e3c cc81 0b3c
00000090: e634 8ebb f979 87bb a206 8c3b c9bb 343a
000000a0: b802 d1bb af42 69bc 4801 6cbc 2de3 ce38
000000b0: c2b7 31bc 8f6d f0bb 14bb dabb 0a72 de3b
000000c0: 8f08 3cbb 0912 dbbb 32bb 103a 520f 2bbc
000000d0: 6157 693b 3cb6 963b 7cf7 913c 6f32 0ebc
000000e0: 5aa4 edbb f414 0c3b 0a10 8cba 1840 d63a
000000f0: 0489 313c a366 e13b a5b1 843b 058c e33b
00000100: fd9d a43b 31e7 013b 03d5 e7bb 8c6d ac3a
00000110: 8348 b33b ae2e 9bbb a0f8 c63b 4f3b f938
00000120: 0b0b 52bb 991b 983c 6c22 31bb 77ce 00bc
00000130: 5c5b f33b 2bd0 ae3b 5fc7 c7ba eaa2 bdbb
00000140: f581 6d3b f340 0dbc 3a5e 453c 3b64 573c
00000150: d7fb 7e3b 98df 053c 130e 6cbc 024b b53b
00000160: 5f97 763c 3359 11bb c53d b03b 21c8 b0bb
00000170: 19a7 593b e1e2 503a 5ae7 a8bb 1dd1 33bb
00000180: 356c 843c 9e7a 3b3c 05f0 b83b 3cdc d83b
00000190: 4abe db3b 3d49 79bb c452 b9bb b19e 103c
000001a0: 4598 07bc b767 84bc f7fb 97bc a050 36bc
000001b0: 0e43 32bc 142c 9f3a 4aef 323b 43f5 213c
000001c0: 7308 88bc 9310 99bb d020 553c 4575 163c
000001d0: 6477 00bb 922f e43b 5687 4dba 406b 0f3c
000001e0: 2c3f 83ba 71c9 e93b 44ef fdbb 4167 2fbc
000001f0: 45ae 6b3c 648c bb3b 09ad 123c ee1c ed3b
00000200: b8a3 4a3c b794 22ba fd21 5f3b 68a5 6f3c
00000210: 8f38 e23b 9dea a63b fd68 41bc f272 d23b
00000220: c102 33b9 d88a 8e3c cbfe 8b3c e150 17bb
00000230: 9683 193b d884 fa3b 936a c8ba 920e 633b
00000240: 063a 96ba 6f5a 5f3c d675 8c3a 5a76 053c
00000250: 0998 273b cc64 8ebb 6272 11bc 168a 363b
00000260: 1c22 cf3b 0b7e 403c 2812 0cba 2849 513c
00000270: 4b08 823b 60bd 293c d5aa 10b9 09bd d03a
00000280: 72f9 88b8 746e 62bb 26a8 87ba a50e 6f3b
00000290: b28d 053c d085 4b3b d50a 423a e7d3 87bb
000002a0: 144c 28bc aa5a 5eba e802 733b ae5b aa3a
000002b0: 12f3 9b3c e00c ed3b 1c12 b33b 885d 98bb
000002c0: ea5e 91bc 5ba1 e13b 971c 2abc 7f0a 2ebc
000002d0: 2d4b 8c3c c430 04bc 8616 b639 7912 9dbc
000002e0: bf9a 833a 6619 8a3b 726a 143b f379 0c3a
000002f0: 4ddc 53bc 844c 38bc b3a5 24bc 485d cbbb
00000300: b58f 7c3c c338 e13b 0d8d 203c 3037 523b
00000310: 5038 10bc 826f 9ebb e1c3 ddbb f5b0 bbbb
00000320: ecff d7bb 6a8e 5d39 1e3c 3d3c 21ca 6d3c
00000330: 1207 7abc b6ef 50bb ada8 05bc 0487 83bc
00000340: 4570 12bc 521a 8b3c 595b 803c 890e bfbb
00000350: f45c 4a3b 5838 973b 5a97 26bc 060a 82ba
00000360: 3695 42bc f1fa f23b 0686 ca3b ed70 f1bb
00000370: d16e 5dbb 8fd0 09bb 5ade 8abb 4bad b63b
00000380: 6052 02bc 4aeb 3e39 6805 88bb 7bb0 053c
00000390: 9e7d ba3b 9480 ab3b 563b a1b9 ada5 363b
000003a0: a32e f23b 032c e03b a963 aa3c e5f3 903b
000003b0: a456 6dbb 82c7 c0ba d067 fc3a ecab 6fbb
000003c0: 7d84 c7bb 5d45 3abc c49e ee39 eed6 bf3a
000003d0: 1270 d63a 5df1 06bc 09e7 c8bb 9934 5e3b
000003e0: c485 cb3b 6354 003c bdd3 66bc b2cf 813b
000003f0: 59e3 3b3c a617 3bbc 45db f0bb 9393 953b
