tensorflow-code/tiny_conv_models/tiny_conv.tflite (tflite, 18960 bytes, 2 tensors)

MatMul i1 [4, 4000] scale=0.00041029562 zero_point=0
0	0xe3	-0.011898573
1	0x07	0.0028720694
2	0x0e	0.0057441387
3	0x1a	0.010667686
4	0x0d	0.005333843
5	0xfb	-0.002051478
6	0x2c	0.018053006
7	0x22	0.013950051
8	0x22	0.013950051
9	0x01	0.00041029562
10	0x12	0.007385321
11	0xef	-0.0069750254
12	0x2a	0.017232416
13	0xdf	-0.013539756
14	0x1d	0.011898573
15	0x0e	0.0057441387
16	0x12	0.007385321
17	0x07	0.0028720694
18	0x0c	0.0049235476
19	0xf0	-0.00656473
20	0x18	0.009847095
21	0xf8	-0.003282365
22	0xfa	-0.0024617738
23	0x00	0.0
24	0x08	0.003282365
25	0xf8	-0.003282365
26	0xed	-0.0077956165
27	0x09	0.0036926605
28	0xf7	-0.0036926605
29	0x12	0.007385321
30	0x19	0.01025739
31	0xdf	-0.013539756
32	0xf3	-0.005333843
33	0xf3	-0.005333843
34	0x24	0.014770642
35	0x15	0.008616208
36	0xf5	-0.0045132516
37	0xf6	-0.004102956
38	0x0a	0.004102956
39	0x02	0.00082059123
40	0xf0	-0.00656473
41	0xdd	-0.014360347
42	0xdd	-0.014360347
43	0x00	0.0
44	0xe6	-0.010667686
45	0xee	-0.007385321
46	0xf0	-0.00656473
47	0x11	0.0069750254
48	0xf9	-0.0028720694
49	0xf0	-0.00656473
50	0x01	0.00041029562
51	0xe7	-0.01025739
52	0x09	0.0036926605
53	0x0b	0.0045132516
54	0x2b	0.017642712
55	0xeb	-0.008616208
56	0xee	-0.007385321
57	0x05	0.002051478
58	0xfd	-0.0012308869
59	0x04	0.0016411825
60	0x1a	0.010667686
61	0x11	0.0069750254
62	0x0a	0.004102956
63	0x11	0.0069750254
64	0x0c	0.0049235476
65	0x05	0.002051478
66	0xef	-0.0069750254
67	0x03	0.0012308869
68	0x0d	0.005333843
69	0xf4	-0.0049235476
70	0x0f	0.0061544343
71	0x00	0.0
72	0xf8	-0.003282365
73	0x2d	0.018463302
74	0xf9	-0.0028720694
75	0xed	-0.0077956165
76	0x12	0.007385321
77	0x0d	0.005333843
78	0xfc	-0.0016411825
79	0xf2	-0.0057441387
80	0x09	0.0036926605
81	0xeb	-0.008616208
82	0x1d	0.011898573
83	0x20	0.01312946
84	0x09	0.0036926605
85	0x14	0.008205912
86	0xdd	-0.014360347
87	0x0d	0.005333843
88	0x25	0.015180938
89	0xfb	-0.002051478
90	0x0d	0.005333843
91	0xf3	-0.005333843
92	0x08	0.003282365
93	0x02	0.00082059123
94	0xf3	-0.005333843
95	0xf9	-0.0028720694
96	0x27	0.016001528
97	0x1c	0.011488277
98	0x0e	0.0057441387
99	0x10	0.00656473
100	0x10	0.00656473
101	0xf7	-0.0036926605
102	0xf2	-0.0057441387
103	0x16	0.009026503
104	0xec	-0.008205912
105	0xd9	-0.016001528
106	0xd3	-0.018463302
107	0xe5	-0.011077981
108	0xe5	-0.011077981
109	0x03	0.0012308869
110	0x07	0.0028720694
111	0x18	0.009847095
112	0xd8	-0.016411824
113	0xf5	-0.0045132516
114	0x20	0.01312946
115	0x16	0.009026503
116	0xfb	-0.002051478
117	0x11	0.0069750254
118	0xfe	-0.00082059123
119	0x15	0.008616208
120	0xfe	-0.00082059123
121	0x11	0.0069750254
122	0xed	-0.0077956165
123	0xe6	-0.010667686
124	0x23	0.014360347
125	0x0e	0.0057441387
126	0x16	0.009026503
127	0x12	0.007385321
128	0x1e	0.012308869
129	0xfe	-0.00082059123
130	0x08	0.003282365
131	0x24	0.014770642
132	0x11	0.0069750254
133	0x0c	0.0049235476
134	0xe3	-0.011898573
135	0x10	0.00656473
136	0x00	0.0
137	0x2a	0.017232416
138	0x2a	0.017232416
139	0xfa	-0.0024617738
140	0x06	0.0024617738
141	0x13	0.0077956165
142	0xfc	-0.0016411825
143	0x08	0.003282365
144	0xfd	-0.0012308869
145	0x21	0.013539756
146	0x03	0.0012308869
147	0x14	0.008205912
148	0x06	0.0024617738
149	0xf5	-0.0045132516
150	0xea	-0.009026503
151	0x07	0.0028720694
152	0x0f	0.0061544343
153	0x1d	0.011898573
154	0xff	-0.00041029562
155	0x1f	0.012719164
156	0x0a	0.004102956
157	0x19	0.01025739
158	0x00	0.0
159	0x04	0.0016411825
160	0x00	0.0
161	0xf8	-0.003282365
162	0xfd	-0.0012308869
163	0x09	0.0036926605
164	0x14	0.008205912
165	0x08	0.003282365
166	0x02	0.00082059123
167	0xf6	-0.004102956
168	0xe7	-0.01025739
169	0xfe	-0.00082059123
170	0x09	0.0036926605
171	0x03	0.0012308869
172	0x2e	0.018873598
173	0x12	0.007385321
174	0x0d	0.005333843
175	0xf5	-0.0045132516
176	0xd5	-0.017642712
177	0x11	0.0069750254
178	0xe7	-0.01025739
179	0xe6	-0.010667686
180	0x2a	0.017232416
181	0xec	-0.008205912
182	0x01	0.00041029562
183	0xd1	-0.019283894
184	0x02	0.00082059123
185	0x0a	0.004102956
186	0x06	0.0024617738
187	0x01	0.00041029562
188	0xe0	-0.01312946
189	0xe5	-0.011077981
190	0xe8	-0.009847095
191	0xf1	-0.0061544343
192	0x26	0.015591233
193	0x11	0.0069750254
194	0x18	0.009847095
195	0x08	0.003282365
196	0xeb	-0.008616208
197	0xf4	-0.0049235476
198	0xf0	-0.00656473
199	0xf2	-0.0057441387
200	0xf0	-0.00656473
201	0x01	0.00041029562
202	0x1c	0.011488277
203	0x23	0.014360347
204	0xdb	-0.015180938
205	0xf8	-0.003282365
206	0xec	-0.008205912
207	0xd9	-0.016001528
208	0xea	-0.009026503
209	0x29	0.01682212
210	0x26	0.015591233
211	0xf2	-0.0057441387
212	0x08	0.003282365
213	0x0b	0.0045132516
214	0xe7	-0.01025739
215	0xfe	-0.00082059123
216	0xe3	-0.011898573
217	0x12	0.007385321
218	0x0f	0.0061544343
219	0xee	-0.007385321
220	0xf8	-0.003282365
221	0xfb	-0.002051478
222	0xf6	-0.004102956
223	0x0e	0.0057441387
224	0xed	-0.0077956165
225	0x00	0.0
226	0xf6	-0.004102956
227	0x14	0.008205912
228	0x0e	0.0057441387
229	0x0d	0.005333843
230	0xff	-0.00041029562
231	0x07	0.0028720694
232	0x12	0.007385321
233	0x11	0.0069750254
234	0x33	0.020925077
235	0x0b	0.0045132516
236	0xf7	-0.0036926605
237	0xfc	-0.0016411825
238	0x05	0.002051478
239	0xf7	-0.0036926605
240	0xf1	-0.0061544343
241	0xe4	-0.011488277
242	0x01	0.00041029562
243	0x04	0.0016411825
244	0x04	0.0016411825
245	0xec	-0.008205912
246	0xf1	-0.0061544343
247	0x08	0.003282365
248	0x0f	0.0061544343
249	0x13	0.0077956165
250	0xde	-0.013950051
251	0x0a	0.004102956
252	0x1c	0.011488277
253	0xe4	-0.011488277
254	0xee	-0.007385321
255	0x0b	0.0045132516

Conv2D i1 [8, 10, 8, 1]
0	0xb3	-77
1	0x3b	59
2	0x28	40
3	0x5f	95
4	0x13	19
5	0x02	2
6	0xbd	-67
7	0xee	-18
8	0xa6	-90
9	0x37	55
10	0x2e	46
11	0x61	97
12	0xf9	-7
13	0xf1	-15
14	0xa9	-87
15	0xeb	-21
16	0xc4	-60
17	0x23	35
18	0x28	40
19	0x3a	58
20	0x03	3
21	0xf4	-12
22	0x94	-108
23	0xd9	-39
24	0xe5	-27
25	0x34	52
26	0x30	48
27	0x4d	77
28	0xe3	-29
29	0xe4	-28
30	0x81	-127
31	0xed	-19
32	0xd9	-39
33	0x49	73
34	0x1e	30
35	0x3f	63
36	0xbc	-68
37	0xce	-50
38	0xb6	-74
39	0x17	23
40	0xe9	-23
41	0x58	88
42	0xf8	-8
43	0x23	35
44	0xb6	-74
45	0xc5	-59
46	0xcb	-53
47	0x26	38
48	0xef	-17
49	0x2b	43
50	0xed	-19
51	0xef	-17
52	0xc1	-63
53	0xc3	-61
54	0xfa	-6
55	0x41	65
56	0xc4	-60
57	0x0c	12
58	0xb5	-75
59	0xbe	-66
60	0xb0	-80
61	0xd0	-48
62	0xee	-18
63	0x4a	74
64	0xdb	-37
65	0xd6	-42
66	0x99	-103
67	0x94	-108
68	0xb5	-75
69	0xd4	-44
70	0xd6	-42
71	0x40	64
72	0xd5	-43
73	0xb6	-74
74	0x9b	-101
75	0xb0	-80
76	0xbf	-65
77	0xd8	-40
78	0x0d	13
79	0x43	67
80	0x45	69
81	0x2e	46
82	0x12	18
83	0x2d	45
84	0x14	20
85	0x03	3
86	0xd7	-41
87	0xa7	-89
88	0x2e	46
89	0x29	41
90	0x17	23
91	0x14	20
92	0x22	34
93	0xfc	-4
94	0xdd	-35
95	0xa3	-93
96	0x42	66
97	0x2f	47
98	0x15	21
99	0x1f	31
100	0x20	32
101	0xfa	-6
102	0xba	-70
103	0x9c	-100
104	0x56	86
105	0x22	34
106	0x35	53
107	0x09	9
108	0x10	16
109	0xf1	-15
110	0x8f	-113
111	0x99	-103
112	0x5b	91
113	0x2b	43
114	0x21	33
115	0x1d	29
116	0xfd	-3
117	0xf0	-16
118	0x81	-127
119	0x9a	-102
120	0x55	85
121	0x40	64
122	0x2a	42
123	0x1d	29
124	0xe1	-31
125	0xcd	-51
126	0x98	-104
127	0xc3	-61
128	0x34	52
129	0x32	50
130	0x02	2
131	0xe4	-28
132	0xb8	-72
133	0xc1	-63
134	0xbc	-68
135	0xd6	-42
136	0x0f	15
137	0x0c	12
138	0xe1	-31
139	0xcc	-52
140	0xb5	-75
141	0xcc	-52
142	0xcf	-49
143	0x1c	28
144	0xd6	-42
145	0xdd	-35
146	0xb8	-72
147	0x97	-105
148	0xd3	-45
149	0xbd	-67
150	0xd1	-47
151	0x07	7
152	0xda	-38
153	0xbf	-65
154	0xb7	-73
155	0xa9	-87
156	0xc4	-60
157	0xec	-20
158	0xee	-18
159	0x22	34
160	0xb8	-72
161	0x10	16
162	0x17	23
163	0x19	25
164	0x51	81
165	0x16	22
166	0x40	64
167	0xce	-50
168	0x9e	-98
169	0xd6	-42
170	0x05	5
171	0xf9	-7
172	0x4d	77
173	0x0c	12
174	0x65	101
175	0xf2	-14
176	0x9c	-100
177	0xc6	-58
178	0xd9	-39
179	0xda	-38
180	0x45	69
181	0xf3	-13
182	0x76	118
183	0x18	24
184	0x8f	-113
185	0xc1	-63
186	0xc3	-61
187	0xcf	-49
188	0x3d	61
189	0xfd	-3
190	0x7f	127
191	0x37	55
192	0xa1	-95
193	0xbe	-66
194	0xb4	-76
195	0xbe	-66
196	0x23	35
197	0x01	1
198	0x6e	110
199	0x45	69
200	0xb3	-77
201	0xcd	-51
202	0xaa	-86
203	0xc8	-56
204	0xfe	-2
205	0x05	5
206	0x60	96
207	0x51	81
208	0xaa	-86
209	0xe0	-32
210	0x97	-105
211	0xc3	-61
212	0xf5	-11
213	0xfe	-2
214	0x4a	74
215	0x4c	76
216	0x9c	-100
217	0x03	3
218	0xbc	-68
219	0xc7	-57
220	0xe6	-26
221	0x01	1
222	0x2e	46
223	0x4e	78
224	0xa5	-91
225	0x00	0
226	0xb7	-73
227	0xc2	-62
228	0xd9	-39
229	0xf9	-7
230	0x22	34
231	0x2f	47
232	0xa2	-94
233	0x0d	13
234	0xaa	-86
235	0xb3	-77
236	0xea	-22
237	0xdb	-37
238	0xff	-1
239	0x00	0
240	0x3d	61
241	0x09	9
242	0x52	82
243	0xe4	-28
244	0x28	40
245	0xbf	-65
246	0xe8	-24
247	0x81	-127
248	0x0f	15
249	0x05	5
250	0x50	80
251	0xff	-1
252	0x5c	92
253	0xd7	-41
254	0x27	39
255	0xb4	-76
