tensorflow-code/ll_conv_models/ll_conv_model.tflite (tflite, 883704 bytes, 4 tensors)

Conv2D i1 [186, 49, 8, 1]
5 -46 -1 -5 75 -6 -47 -5
32 -92 7 84 -91 -15 -67 35
41 -6 -16 20 -4 -32 -56 9
20 32 52 104 9 -23 -85 -2
65 82 68 11 -16 27 89 8
29 -12 87 70 -77 44 34 7
-4 -1 23 55 -11 63 32 -83
39 12 44 -26 19 -34 -58 -32
21 39 7 -45 2 28 -38 -66
49 15 16 -11 11 92 -42 -3
86 114 94 -15 -49 11 -22 10
28 105 -74 54 -33 -53 -3 77
9 -14 -10 -22 30 34 40 -21
49 71 -77 59 -8 -5 -2 -27
-13 -12 -20 -67 -39 -39 -51 -13
31 46 9 -54 49 -49 -74 -16
95 -25 18 -42 -13 16 26 49
87 -37 -71 18 -86 56 -96 20
-51 95 30 20 15 -56 -71 -5
69 58 -21 -21 -16 62 -80 -52
-26 -43 65 -41 23 -14 -96 -63
21 -34 -33 -86 69 -53 -53 6
-9 -65 -62 -88 -52 26 -22 -11
-63 -12 -17 16 1 49 37 -31
51 -32 -24 20 -18 -43 -60 18
-41 -31 3 -40 12 -16 17 40
-73 -27 -43 -105 60 -97 2 -11
-66 -2 -16 9 50 -54 -54 50
-123 -91 7 -55 21 -11 -31 -12
-90 -45 -62 -98 -83 -39 -7 14
-76 14 -89 -7 -40 -90 2 9
-127 9 -90 24 -59 60 -25 -50
00000000: 05d2 fffb 4bfa d1fb 20a4 0754 a5f1 bd23
00000010: 29fa f014 fce0 c809 1420 3468 09e9 abfe
00000020: 4152 440b f01b 5908 1df4 5746 b32c 2207
00000030: fcff 1737 f53f 20ad 270c 2ce6 13de c6e0
00000040: 1527 07d3 021c dabe 310f 10f5 0b5c d6fd
00000050: 5672 5ef1 cf0b ea0a 1c69 b636 dfcb fd4d
00000060: 09f2 f6ea 1e22 28eb 3147 b33b f8fb fee5
00000070: f3f4 ecbd d9d9 cdf3 1f2e 09ca 31cf b6f0
00000080: 5fe7 12d6 f310 1a31 57db b912 aa38 a014
00000090: cd5f 1e14 0fc8 b9fb 453a ebeb f03e b0cc
000000a0: e6d5 41d7 17f2 a0c1 15de dfaa 45cb cb06
000000b0: f7bf c2a8 cc1a eaf5 c1f4 ef10 0131 25e1
000000c0: 33e0 e814 eed5 c412 d7e1 03d8 0cf0 1128
000000d0: b7e5 d597 3c9f 02f5 befe f009 32ca ca32
000000e0: 85a5 07c9 15f5 e1f4 a6d3 c29e add9 f90e
000000f0: b40e a7f9 d8a6 0209 8109 a618 c53c e7ce

MatMul i1 [128, 6138] scale=0.00022832183 zero_point=0
-0.002968184 -0.002739862 -0.015297563 0.0034248275 -0.010502804 0.007077977 -0.005936368 0.005251402
-0.021690574 -0.0018265747 0.001369931 -0.013242667 -0.00867623 -0.009132873 0.001369931 -0.00091328734
0.011644414 0.005251402 -0.015297563 -0.005936368 0.0047947587 -0.0038814712 -0.0073062987 0.0
0.007077977 0.008447908 -0.002739862 0.0 -0.01735246 0.007991265 0.0011416092 0.0036531494
-0.0034248275 -0.005936368 0.005251402 0.004109793 -0.0036531494 -0.0045664366 0.021918897 0.0011416092
-0.005936368 -0.0095895175 -0.0077629425 0.015525885 -0.005251402 -0.0045664366 -0.0061646895 -0.005936368
0.016667495 0.0018265747 -0.011644414 0.010502804 0.0034248275 0.006393011 -0.0015982528 -0.005251402
-0.0047947587 -0.002968184 -0.0022832183 0.011872736 0.00091328734 -0.0077629425 0.005251402 0.008447908
0.016895816 -0.0036531494 0.0073062987 0.005936368 -0.0020548964 -0.002739862 -0.008447908 -0.01369931
-0.006849655 0.006849655 0.0073062987 -0.011416092 0.006393011 0.015525885 0.004338115 -0.006393011
0.017580781 -0.005479724 0.006393011 -0.006393011 -0.0045664366 0.008447908 -0.012786022 0.005479724
-0.0066213333 0.008219586 0.0011416092 -0.0034248275 0.0050230804 0.01369931 0.0095895175 -0.014384275
0.0020548964 0.0011416092 -0.002739862 0.018494068 0.007077977 -0.0075346204 -0.004109793 0.012329379
0.006393011 0.015297563 0.0066213333 -0.004338115 0.015525885 0.014155954 0.0025115402 0.0050230804
-0.0015982528 -0.0015982528 -0.014612597 -0.014612597 0.0015982528 -0.0075346204 -0.00045664367 -0.001369931
-0.0061646895 -0.0047947587 -0.009361195 -0.0020548964 0.014155954 0.004109793 -0.0075346204 -0.0031965056
-0.007991265 0.0011416092 -0.008904551 -0.001369931 0.005708046 -0.0045664366 0.0015982528 0.00022832183
0.012101057 0.002739862 0.0047947587 0.001369931 0.0006849655 0.0045664366 0.007077977 -0.008904551
-0.00091328734 -0.020777287 -0.005251402 -0.009132873 -0.004338115 -0.010046161 0.010046161 -0.012786022
0.002968184 -0.018494068 0.008219586 -0.00022832183 -0.0095895175 -0.005479724 -0.0034248275 0.0077629425
0.0015982528 -0.008904551 -0.010274483 -0.01369931 -0.009817839 -0.001369931 0.019864 0.0061646895
0.00091328734 -0.0077629425 0.005251402 0.018494068 -0.0011416092 -0.012101057 0.012101057 0.005708046
-0.015069241 0.00867623 0.006849655 0.0130143445 -0.0061646895 -0.00091328734 -0.002739862 -0.013927632
0.0095895175 -0.0130143445 0.00022832183 -0.0018265747 0.0111877695 0.0031965056 0.004109793 0.017580781
0.020320643 -0.005936368 -0.00867623 0.0038814712 0.010731126 0.013927632 -0.0045664366 0.012101057
0.004109793 0.0095895175 0.015069241 -0.005251402 0.0047947587 -0.0036531494 0.00045664367 0.009361195
0.008904551 -0.0011416092 0.0047947587 0.005708046 -0.01369931 -0.015069241 -0.019635677 0.005936368
0.0050230804 0.0073062987 0.005479724 -0.0031965056 -0.0050230804 0.0075346204 0.00022832183 0.009817839
0.012101057 -0.002968184 0.017124137 0.0075346204 -0.0075346204 0.007077977 -0.007077977 0.00022832183
0.00022832183 -0.011644414 0.016439172 0.014155954 0.0006849655 0.004109793 -0.012557701 0.004109793
0.008447908 -0.0050230804 0.0018265747 -0.0061646895 -0.005708046 -0.0025115402 0.0061646895 0.011416092
-0.005936368 -0.00045664367 0.005479724 -0.0036531494 -0.012557701 0.017809102 -0.0038814712 -0.005936368
00000000: f3f4 bd0f d21f e617 a1f8 06c6 dad8 06fc
00000010: 3317 bde6 15ef e000 1f25 f400 b423 0510
00000020: f1e6 1712 f0ec 6005 e6d6 de44 e9ec e5e6
00000030: 4908 cd2e 0f1c f9e9 ebf3 f634 04de 1725
00000040: 4af0 201a f7f4 dbc4 e21e 20ce 1c44 13e4
00000050: 4de8 1ce4 ec25 c818 e324 05f1 163c 2ac1
00000060: 0905 f451 1fdf ee36 1c43 1ded 443e 0b16
00000070: f9f9 c0c0 07df fefa e5eb d7f7 3e12 dff2
00000080: dd05 d9fa 19ec 0701 350c 1506 0314 1fd9
00000090: fca5 e9d8 edd4 2cc8 0daf 24ff d6e8 f122
000000a0: 07d9 d3c4 d5fa 571b 04de 1751 fbcb 3519
000000b0: be26 1e39 e5fc f4c3 2ac7 01f8 310e 124d
000000c0: 59e6 da11 2f3d ec35 122a 42e9 15f0 0229
000000d0: 27fb 1519 c4be aa1a 1620 18f2 ea21 012b
000000e0: 35f3 4b21 df1f e101 01cd 483e 0312 c912
000000f0: 25ea 08e5 e7f5 1b32 e6fe 18f0 c94e efe6

MatMul_1 i1 [128, 128] scale=0.00030214404 zero_point=0
-0.00060428807 0.014200769 0.0021150082 0.011783618 0.0015107202 0.009970753 -0.009064321 0.026286531
0.011179329 -0.0075536007 -0.021754371 -0.018430786 -0.007251457 -0.008762177 0.014805058 0.022660803
-0.011481473 0.019035075 -0.0033235843 -0.013596482 -0.016013633 0.018430786 0.0054385928 0.018430786
0.0030214405 0.0054385928 0.0033235843 0.009064321 -0.009064321 0.019035075 -0.0009064321 -0.025984388
0.008762177 0.007855745 0.0057407366 0.00030214404 0.0066471687 0.008157889 -0.0075536007 -0.0036257284
0.016013633 0.011783618 -0.006949313 -0.014200769 -0.0036257284 -0.0039278725 0.00030214404 -0.012085762
0.0051364484 0.006345025 0.010575041 -0.01571149 -0.013596482 -0.008762177 -0.009668609 0.009970753
0.025984388 0.008157889 -0.0051364484 0.014502914 -0.0066471687 -0.009668609 0.024171524 0.024473667
0.007251457 0.019035075 0.01269005 -0.0024171523 0.0048343046 0.0024171523 -0.00060428807 0.0045321607
0.01269005 -0.012085762 -0.010575041 0.009970753 -0.009668609 0.0 0.010272897 -0.0018128642
-0.0042300164 0.029005827 0.0045321607 0.014805058 -0.013898626 0.0033235843 0.009064321 0.0108771855
-0.008157889 0.009668609 0.0009064321 0.018430786 -0.009668609 0.012992194 0.0108771855 0.008157889
-0.006042881 -0.0021150082 0.0033235843 -0.006949313 -0.0051364484 0.015107201 0.00030214404 -0.0066471687
0.01722221 -0.027192963 -0.024171524 0.008460033 -0.00060428807 -0.0024171523 0.012387905 -0.0051364484
0.020545794 0.021452226 0.0051364484 -0.017826498 0.0015107202 0.015409346 0.022358658 -0.012387905
0.015409346 0.008157889 -0.012992194 -0.013596482 0.006345025 0.0108771855 -0.009970753 0.009970753
0.0009064321 0.010575041 0.0048343046 -0.00030214404 -0.009064321 -0.019639362 -0.0033235843 -0.009064321
-0.014805058 0.0048343046 0.01722221 -0.018128643 0.0030214405 -0.0057407366 0.012387905 0.0051364484
-0.006949313 0.023869378 0.0027192964 -0.0021150082 -0.017524354 -0.008762177 0.013596482 -0.006042881
-0.0066471687 0.0033235843 -0.00030214404 0.011481473 0.008762177 -0.025077956 -0.006042881 0.011481473
-0.007251457 0.0024171523 -0.009970753 0.0075536007 0.027495107 -0.012992194 0.014502914 0.0015107202
-0.018430786 -0.012992194 0.0057407366 0.00060428807 0.012992194 -0.0018128642 -0.014502914 0.011179329
-0.025984388 0.016315779 0.0039278725 -0.0048343046 0.010272897 -0.006949313 0.009064321 0.008460033
-0.0048343046 -0.00060428807 -0.013596482 0.0036257284 -0.020545794 -0.006042881 0.009064321 0.00030214404
-0.016920066 0.0033235843 -0.0036257284 -0.011783618 -0.006345025 0.01269005 0.0066471687 0.0024171523
0.026588675 0.016617922 0.00030214404 0.007251457 0.0024171523 0.0027192964 0.0018128642 0.018128643
-0.009366465 -0.013898626 0.008460033 -0.016617922 0.007251457 0.011783618 0.010575041 -0.01873293
0.0042300164 -0.0033235843 0.027192963 0.016013633 0.011179329 0.009970753 0.013596482 -0.0045321607
-0.007251457 -0.0057407366 0.019639362 -0.0021150082 0.00030214404 -0.013898626 0.012085762 -0.019035075
-0.006042881 0.009366465 -0.01571149 -0.0066471687 -0.014200769 -0.009366465 0.0048343046 -0.020847939
-0.011481473 -0.009064321 0.010575041 0.013294337 0.0033235843 -0.01873293 0.0018128642 -0.0048343046
-0.0048343046 0.0 0.016920066 -0.0018128642 -0.018128643 0.0009064321 -0.007855745 -0.014502914
00000000: fe2f 0727 0521 e257 25e7 b8c3 e8e3 314b
00000010: da3f f5d3 cb3d 123d 0a12 0b1e e23f fdaa
00000020: 1d1a 1301 161b e7f4 3527 e9d1 f4f3 01d8
00000030: 1115 23cc d3e3 e021 561b ef30 eae0 5051
00000040: 183f 2af8 1008 fe0f 2ad8 dd21 e000 22fa
00000050: f260 0f31 d20b 1e24 e520 033d e02b 241b
00000060: ecf9 0be9 ef32 01ea 39a6 b01c fef8 29ef
00000070: 4447 11c5 0533 4ad7 331b d5d3 1524 df21
00000080: 0323 10ff e2bf f5e2 cf10 39c4 0aed 2911
00000090: e94f 09f9 c6e3 2dec ea0b ff26 1dad ec26
000000a0: e808 df19 5bd5 3005 c3d5 1302 2bfa d025
000000b0: aa36 0df0 22e9 1e1c f0fe d30c bcec 1e01
000000c0: c80b f4d9 eb2a 1608 5837 0118 0809 063c
000000d0: e1d2 1cc9 1827 23c2 0ef5 5a35 2521 2df1
000000e0: e8ed 41f9 01d2 28c1 ec1f ccea d1e1 10bb
000000f0: dae2 232c 0bc2 06f0 f000 38fa c403 e6d0

MatMul_2 i1 [4, 128] scale=0.000896693 zero_point=0
0.07801229 -0.07532221 0.02421071 0.10491308 0.102223 -0.055594966 0.046628036 0.06545859
-0.053801578 0.001793386 -0.044834647 -0.026004096 0.005380158 0.07801229 0.026900789 -0.10849985
0.022417324 0.011657009 -0.026900789 -0.02421071 -0.025107402 0.031384256 -0.047524728 0.026900789
0.017037166 0.064561896 -0.060975123 0.004483465 0.09684284 0.112086624 0.026900789 -0.01793386
-0.00896693 0.089669295 0.02421071 0.10132631 0.06994205 -0.06276851 -0.07801229 0.036764413
0.021520631 0.034074333 -0.016140474 0.11388001 -0.031384256 0.040351182 0.0511115 -0.047524728
0.0887726 -0.053801578 0.034074333 0.014347088 0.04842142 0.018830553 0.05738835 0.09235938
0.06007843 -0.012553701 0.072632134 -0.034971025 -0.052904885 0.03317764 0.038557798 0.02062394
-0.016140474 0.013450394 0.05469827 0.060975123 0.0887726 0.06276851 -0.027797483 -0.022417324
-0.029590867 0.05469827 0.0 -0.015243781 0.023314018 0.034074333 -0.021520631 -0.01793386
0.09594615 -0.001793386 -0.038557798 -0.03586772 -0.037661105 -0.00896693 0.061871815 -0.10670646
-0.008070237 0.08518583 0.005380158 -0.000896693 -0.045731343 -0.06276851 -0.06007843 0.11118993
-0.08518583 -0.02421071 -0.019727245 -0.001793386 -0.07442552 0.060975123 -0.003586772 0.003586772
-0.04124788 -0.000896693 -0.058285043 0.050214805 -0.07890898 -0.01793386 0.014347088 0.017037166
0.03317764 0.008070237 -0.013450394 0.016140474 -0.000896693 0.07890898 -0.022417324 -0.02062394
0.0511115 -0.03945449 0.019727245 -0.09325607 -0.031384256 -0.07083874 -0.08697922 -0.04214457
-0.002690079 0.043937955 -0.022417324 -0.029590867 -0.027797483 0.003586772 -0.043041263 -0.030487562
0.0 0.047524728 0.01793386 0.052904885 0.001793386 -0.013450394 0.030487562 0.03586772
0.0098636225 -0.002690079 0.001793386 0.050214805 -0.0511115 -0.047524728 -0.001793386 0.036764413
-0.058285043 0.013450394 -0.00896693 -0.02062394 -0.036764413 -0.032280948 0.002690079 0.047524728
-0.056491658 -0.037661105 0.017037166 -0.034971025 0.005380158 0.004483465 0.040351182 -0.037661105
-0.034971025 0.001793386 -0.04842142 -0.026900789 0.005380158 -0.060975123 0.027797483 0.034074333
-0.047524728 0.011657009 0.02062394 -0.05469827 0.014347088 -0.05738835 -0.007173544 -0.023314018
-0.059181735 0.055594966 0.003586772 0.013450394 -0.017037166 -0.049318112 0.034971025 -0.011657009
0.012553701 0.043937955 0.028694175 -0.00896693 -0.028694175 -0.004483465 -0.023314018 -0.038557798
-0.031384256 0.01793386 -0.040351182 0.044834647 -0.021520631 0.011657009 -0.003586772 -0.047524728
-0.019727245 -0.04214457 0.045731343 0.05469827 0.019727245 0.001793386 -0.047524728 0.037661105
0.011657009 -0.036764413 0.050214805 -0.059181735 -0.001793386 -0.029590867 0.026004096 -0.031384256
0.000896693 -0.017037166 0.004483465 0.0511115 -0.015243781 -0.021520631 -0.026004096 -0.003586772
-0.027797483 0.027797483 -0.0062768506 -0.025107402 0.047524728 -0.012553701 0.004483465 0.0098636225
-0.04124788 -0.030487562 0.040351182 -0.002690079 0.037661105 -0.013450394 0.023314018 0.043937955
-0.026900789 0.030487562 -0.032280948 0.032280948 0.044834647 0.032280948 0.02062394 -0.015243781
00000000: 57ac 1b75 72c2 3449 c402 cee3 0657 1e87
00000010: 190d e2e5 e423 cb1e 1348 bc05 6c7d 1eec
00000020: f664 1b71 4eba a929 1826 ee7f dd2d 39cb
00000030: 63c4 2610 3615 4067 43f2 51d9 c525 2b17
00000040: ee0f 3d44 6346 e1e7 df3d 00ef 1a26 e8ec
00000050: 6bfe d5d8 d6f6 4589 f75f 06ff cdba bd7c
00000060: a1e5 eafe ad44 fc04 d2ff bf38 a8ec 1013
00000070: 2509 f112 ff58 e7e9 39d4 1698 ddb1 9fd1
00000080: fd31 e7df e104 d0de 0035 143b 02f1 2228
00000090: 0bfd 0238 c7cb fe29 bf0f f6e9 d7dc 0335
000000a0: c1d6 13d9 0605 2dd6 d902 cae2 06bc 1f26
000000b0: cb0d 17c3 10c0 f8e6 be3e 040f edc9 27f3
000000c0: 0e31 20f6 e0fb e6d5 dd14 d332 e80d fccb
000000d0: ead1 333d 1602 cb2a 0dd7 38be fedf 1ddd
000000e0: 01ed 0539 efe8 e3fc e11f f9e4 35f2 050b
000000f0: d2de 2dfd 2af1 1a31 e222 dc24 3224 17ef
