tensorflow-code/conv_models/conv_model.tflite (tflite, 308160 bytes, 3 tensors)

Conv2D i1 [64, 20, 8, 1]
000000 26 2f 22 08 e8 f0 0e d8 13 ff 28 f5 16 e0 fb d8
       38 47 34 8 -24 -16 14 -40 19 -1 40 -11 22 -32 -5 -40
000010 f9 15 11 03 15 ed ef f8 14 06 2b fd 03 f4 f4 0d
       -7 21 17 3 21 -19 -17 -8 20 6 43 -3 3 -12 -12 13
000020 e8 19 02 fe 09 e8 19 ed 0b 2b e7 0b 0f fc 1b e0
       -24 25 2 -2 9 -24 25 -19 11 43 -25 11 15 -4 27 -32
000030 ff ed 0b fd fc 05 10 1f e1 f0 f1 0a 05 1e 34 33
       -1 -19 11 -3 -4 5 16 31 -31 -16 -15 10 5 30 52 51
000040 f3 fd d6 13 e3 0e 37 4e b9 b9 11 14 1a 2f 7a 67
       -13 -3 -42 19 -29 14 55 78 -71 -71 17 20 26 47 122 103
000050 9e 9c e7 e9 0d 09 62 52 86 a9 e7 de f5 16 78 7f
       -98 -100 -25 -23 13 9 98 82 -122 -87 -25 -34 -11 22 120 127
000060 bf a5 b9 e6 17 24 44 58 e2 be a9 ea f3 14 4b 19
       -65 -91 -71 -26 23 36 68 88 -30 -66 -87 -22 -13 20 75 25
000070 ca d3 b8 e1 e1 29 52 2a de e8 c2 ca 00 2a 1a ff
       -54 -45 -72 -31 -31 41 82 42 -34 -24 -62 -54 0 42 26 -1
000080 e6 da fd f8 cc 07 fc fd ee e2 db 03 0d fd 00 c6
       -26 -38 -3 -8 -52 7 -4 -3 -18 -30 -37 3 13 -3 0 -58
000090 d6 d9 f0 e7 0d ff e4 c2 d2 dc e0 0f 00 00 06 d4
       -42 -39 -16 -25 13 -1 -28 -62 -46 -36 -32 15 0 0 6 -44
0000a0 fd 13 f2 1a 16 f0 3b 1c e1 e2 08 02 e7 02 0a 2e
       -3 19 -14 26 22 -16 59 28 -31 -30 8 2 -25 2 10 46
0000b0 d0 0a e6 e1 ed 18 1b 5e b6 e1 1f bc 04 eb 1a 0e
       -48 10 -26 -31 -19 24 27 94 -74 -31 31 -68 4 -21 26 14
0000c0 a4 ea 08 d4 00 1d 25 6f ae a5 e5 d8 f6 0e 72 55
       -92 -22 8 -44 0 29 37 111 -82 -91 -27 -40 -10 14 114 85
0000d0 b2 05 00 d8 f9 3f 50 4d ca bb e6 b4 d6 f7 54 5d
       -78 5 0 -40 -7 63 80 77 -54 -69 -26 -76 -42 -9 84 93
0000e0 d6 de 06 db 11 20 66 7f 9d ae e2 d4 07 2f 69 4f
       -42 -34 6 -37 17 32 102 127 -99 -82 -30 -44 7 47 105 79
0000f0 dd e0 d2 b8 14 4e 4e 46 cd dd f5 b0 f4 05 66 6f
       -35 -32 -46 -72 20 78 78 70 -51 -35 -11 -80 -12 5 102 111

Conv2D_1 i1 [64, 10, 4, 64]
000000 09 ab 2b 04 56 e8 13 28 ce 07 1e 1a 1f 37 ea e2
       9 -85 43 4 86 -24 19 40 -50 7 30 26 31 55 -22 -30
000010 0e 05 cc c5 d7 c5 9c ec 45 dc 14 f4 da 0f f7 34
       14 5 -52 -59 -41 -59 -100 -20 69 -36 20 -12 -38 15 -9 52
000020 06 01 ba 20 ff 40 e5 c4 39 0c ec 05 32 d4 00 0b
       6 1 -70 32 -1 64 -27 -60 57 12 -20 5 50 -44 0 11
000030 0c 15 c9 07 13 3f f7 0b ee 0f 40 ad 02 2c f6 0b
       12 21 -55 7 19 63 -9 11 -18 15 64 -83 2 44 -10 11
000040 3a 20 dc 3f 0b 32 17 c2 d1 f1 e2 d6 e6 d6 3d e3
       58 32 -36 63 11 50 23 -62 -47 -15 -30 -42 -26 -42 61 -29
000050 45 aa cc e0 36 e3 f6 f3 4f 20 01 28 1c 2c 0b fb
       69 -86 -52 -32 54 -29 -10 -13 79 32 1 40 28 44 11 -5
000060 ef 51 eb fd f6 f6 f9 18 22 fc 54 08 2f 09 af 20
       -17 81 -21 -3 -10 -10 -7 24 34 -4 84 8 47 9 -81 32
000070 14 28 c4 f6 09 06 f0 22 1f 06 e6 09 09 00 c1 cb
       20 40 -60 -10 9 6 -16 34 31 6 -26 9 9 0 -63 -53
000080 eb ed c9 18 f0 f4 44 0b 0b 35 26 f2 28 ee b2 dd
       -21 -19 -55 24 -16 -12 68 11 11 53 38 -14 40 -18 -78 -35
000090 1d d6 fb 1a c4 ce 00 ff d3 d1 d6 c0 19 e6 ce d0
       29 -42 -5 26 -60 -50 0 -1 -45 -47 -42 -64 25 -26 -50 -48
0000a0 0e 3e 26 11 3b ab f3 e2 1f c1 31 cc f4 3b 18 0d
       14 62 38 17 59 -85 -13 -30 31 -63 49 -52 -12 59 24 13
0000b0 e9 f4 f9 33 08 c1 04 34 cf 1f e1 58 18 0c e9 2c
       -23 -12 -7 51 8 -63 4 52 -49 31 -31 88 24 12 -23 44
0000c0 f7 04 d1 0c f3 e9 f2 03 fe 26 e1 f6 0d bc 44 fa
       -9 4 -47 12 -13 -23 -14 3 -2 38 -31 -10 13 -68 68 -6
0000d0 da dc 2e 5c ac f4 18 0b 16 11 d1 ba b5 3c c0 42
       -38 -36 46 92 -84 -12 24 11 22 17 -47 -70 -75 60 -64 66
0000e0 ec aa 22 cc d6 25 20 e1 24 d9 9d ff 0d fe c8 f1
       -20 -86 34 -52 -42 37 32 -31 36 -39 -99 -1 13 -2 -56 -15
0000f0 e8 af db fd f2 ee c4 a9 d8 fd 0e b5 f3 15 30 1a
       -24 -81 -37 -3 -14 -18 -60 -87 -40 -3 14 -75 -13 21 48 26

MatMul i1 [4, 32000] scale=0.00028350067 zero_point=0
000000 f7 d9 0f fe 03 c1 f8 3c ec ef 1c 00 07 f7 fa 25
       -0.002551506 -0.011056527 0.00425251 -0.00056700135 0.00085050205 -0.017860543 -0.0022680054 0.01701004 -0.0056700134 -0.0048195114 0.007938019 0.0 0.0019845047 -0.002551506 -0.0017010041 0.010489525
000010 f4 13 fb d3 f3 df d9 f4 da f1 00 2c e4 f8 bf 31
       -0.0034020082 0.0053865127 -0.0014175033 -0.01275753 -0.0036855089 -0.009355523 -0.011056527 -0.0034020082 -0.010773025 -0.00425251 0.0 0.012474029 -0.007938019 -0.0022680054 -0.018427543 0.013891533
000020 ee 23 e4 01 12 0f 0f 01 0c e1 ed 08 f6 1d e4 e8
       -0.005103012 0.009922524 -0.007938019 0.00028350067 0.005103012 0.00425251 0.00425251 0.00028350067 0.0034020082 -0.0087885205 -0.0053865127 0.0022680054 -0.0028350067 0.008221519 -0.007938019 -0.0068040164
000030 05 df 10 f1 dc f7 fb 19 0a 01 37 f6 ef c4 e2 ea
       0.0014175033 -0.009355523 0.004536011 -0.00425251 -0.010206024 -0.002551506 -0.0014175033 0.007087517 0.0028350067 0.00028350067 0.015592537 -0.0028350067 -0.0048195114 -0.01701004 -0.00850502 -0.0062370147
000040 e0 31 3d 20 c1 ed cd ef e6 fd d0 e3 19 1c 04 0b
       -0.009072022 0.013891533 0.01729354 0.009072022 -0.017860543 -0.0053865127 -0.014458534 -0.0048195114 -0.0073710177 -0.00085050205 -0.013608033 -0.008221519 0.007087517 0.007938019 0.0011340027 0.0031185073
000050 d6 f9 f5 ed eb 10 e2 ea 30 de d2 ef 43 1a 28 e6
       -0.011907028 -0.0019845047 -0.0031185073 -0.0053865127 -0.005953514 0.004536011 -0.00850502 -0.0062370147 0.013608033 -0.009639023 -0.013041031 -0.0048195114 0.018994546 0.0073710177 0.011340027 -0.0073710177
000060 f8 ea f3 14 fe 13 37 d6 13 20 c9 e5 02 1e be 33
       -0.0022680054 -0.0062370147 -0.0036855089 0.0056700134 -0.00056700135 0.0053865127 0.015592537 -0.011907028 0.0053865127 0.009072022 -0.015592537 -0.0076545184 0.00056700135 0.00850502 -0.018711045 0.014458534
000070 d3 d1 2f ff c9 e0 f2 e8 e3 0d 15 c4 e8 08 f8 ec
       -0.01275753 -0.013324532 0.013324532 -0.00028350067 -0.015592537 -0.009072022 -0.0039690095 -0.0068040164 -0.008221519 0.0036855089 0.005953514 -0.01701004 -0.0068040164 0.0022680054 -0.0022680054 -0.0056700134
000080 f8 10 00 2d fa c9 10 f1 40 c3 c9 1a 07 31 30 d4
       -0.0022680054 0.004536011 0.0 0.01275753 -0.0017010041 -0.015592537 0.004536011 -0.00425251 0.018144043 -0.01729354 -0.015592537 0.0073710177 0.0019845047 0.013891533 0.013608033 -0.012474029
000090 09 0e fe ef c4 2b ee cb 0b d0 bd 14 f3 11 0b 22
       0.002551506 0.0039690095 -0.00056700135 -0.0048195114 -0.01701004 0.012190529 -0.005103012 -0.015025536 0.0031185073 -0.013608033 -0.018994546 0.0056700134 -0.0036855089 0.0048195114 0.0031185073 0.009639023
0000a0 25 d8 08 2d d7 f5 07 44 f0 ed 14 f2 2b 14 1c f0
       0.010489525 -0.011340027 0.0022680054 0.01275753 -0.011623528 -0.0031185073 0.0019845047 0.019278046 -0.004536011 -0.0053865127 0.0056700134 -0.0039690095 0.012190529 0.0056700134 0.007938019 -0.004536011
0000b0 de e0 d1 fa 09 11 e4 be da d5 17 26 05 10 1c 27
       -0.009639023 -0.009072022 -0.013324532 -0.0017010041 0.002551506 0.0048195114 -0.007938019 -0.018711045 -0.010773025 -0.012190529 0.0065205153 0.010773025 0.0014175033 0.004536011 0.007938019 0.011056527
0000c0 c9 22 35 f8 33 0a fd 18 28 14 38 e7 1c f7 14 25
       -0.015592537 0.009639023 0.015025536 -0.0022680054 0.014458534 0.0028350067 -0.00085050205 0.0068040164 0.011340027 0.0056700134 0.015876038 -0.007087517 0.007938019 -0.002551506 0.0056700134 0.010489525
0000d0 c1 2c 14 f3 f6 11 16 be 0e fb 42 22 d8 f0 fa e8
       -0.017860543 0.012474029 0.0056700134 -0.0036855089 -0.0028350067 0.0048195114 0.0062370147 -0.018711045 0.0039690095 -0.0014175033 0.018711045 0.009639023 -0.011340027 -0.004536011 -0.0017010041 -0.0068040164
0000e0 f4 fe c7 2c d3 f9 1a 36 fe b8 fd 42 08 17 e7 f4
       -0.0034020082 -0.00056700135 -0.016159538 0.012474029 -0.01275753 -0.0019845047 0.0073710177 0.015309037 -0.00056700135 -0.020412048 -0.00085050205 0.018711045 0.0022680054 0.0065205153 -0.007087517 -0.0034020082
0000f0 20 35 fb 01 d6 f8 33 23 2d ec f8 19 ce 1a 15 dc
       0.009072022 0.015025536 -0.0014175033 0.00028350067 -0.011907028 -0.0022680054 0.014458534 0.009922524 0.01275753 -0.0056700134 -0.0022680054 0.007087517 -0.014175034 0.0073710177 0.005953514 -0.010206024
