tensorflow-code/embed_conv_models/float_tiny_embedding_conv.tflite (tflite, 26528 bytes, 6 tensors)

second_bias f4 [8]
000000 2d 28 15 bc 12 47 92 bc 61 c8 8d bc 3d 34 6f 3c
       -0.009103817 -0.017856155 -0.017307462 0.014599857
000010 5d 22 b0 ba 81 79 b4 bc 0c 6f 8b bc 0d 0a 04 3c
       -0.0013437975 -0.022030594 -0.017020725 0.008059037

first_bias f4 [8]
000000 41 e1 22 3b 22 38 1f bd e7 fc 5d bc 36 4c 7a 3c
       0.00248535 -0.03887189 -0.013549066 0.015276959
000010 40 7f 40 3c 6e 6e 02 bd 6a b6 75 3c c4 dd 8b bc
       0.011749089 -0.031843595 0.014997104 -0.01707352

final_fc_bias f4 [4]
000000 13 85 4a 3d 03 77 3a bd b1 b8 7a bd a8 aa 6a 3d
       0.049443316 -0.045523655 -0.06121129 0.057291657

MatMul f4 [4, 96]
000000 1a b7 da bb 07 50 5b bc f9 97 0b bd 89 88 8e 3b
       -0.0066746594 -0.013385779 -0.03408048 0.0043497724
000010 f8 23 2c bc 35 00 01 bc 97 29 4c 3a fd 55 e7 3c
       -0.0105066225 -0.0078735845 0.000778818 0.028239245
000020 07 b9 61 ba ef 7f 70 3b 26 e8 80 bb 27 7b 11 bc
       -0.000861064 0.0036697348 -0.0039339243 -0.008879459
000030 7d 2e 02 3c e0 7e de bb 1a 68 01 3c f5 a0 f5 3c
       0.007945654 -0.006790027 0.007898355 0.029983977
000040 92 45 78 3b b3 bb b8 3b 5d 5e b9 bb dc 5b 47 bb
       0.0037883264 0.00563761 -0.005657001 -0.0030419743
000050 e2 2d e6 3b 6e 55 70 bc 0b fa 03 bb 7d 4f ae 3c
       0.0070245126 -0.0146688055 -0.002013805 0.021278137
000060 e3 3c 05 be d7 4d 01 be c8 f1 e9 bd 86 f3 f2 bd
       -0.13011508 -0.1262735 -0.11423069 -0.11862855
000070 39 6c d9 bd 4e 32 96 bd 7a 87 fc bd 26 4a 6a 3d
       -0.10616345 -0.073338136 -0.123305276 0.05719962
000080 db 91 a4 3b cc 2a cf bc 55 97 c6 bc fe dc 95 bd
       0.00502227 -0.025288962 -0.024242083 -0.073175415
000090 50 24 61 bc 08 8b 35 bc 35 5c 1c bd ff f9 2a 3d
       -0.013741568 -0.011080511 -0.038173873 0.04174232
0000a0 85 72 e4 3a 06 e2 18 ba 84 13 92 bd 70 ff f5 bc
       0.0017429149 -0.000583202 -0.071326286 -0.030029029
0000b0 02 e8 15 3c 16 f2 60 bd de f4 48 bd 95 94 e2 3c
       0.009149553 -0.05491837 -0.04906165 0.02765874
0000c0 24 bf 23 be cc 35 13 be a9 35 17 be 6f df 89 bd
       -0.15990883 -0.1437599 -0.14766563 -0.0673207
0000d0 18 94 14 be 6c b2 fe bd 72 a2 29 be 4c e5 89 3d
       -0.14509618 -0.12436375 -0.16565874 0.06733188
0000e0 c0 76 00 3c 0b e6 1f bd 74 b2 b6 bc 99 e8 e6 bc
       0.007840812 -0.039037745 -0.02230189 -0.028187083
0000f0 b0 59 6b bd 40 ba 27 bc 3f 5b 54 bd ce a7 ed 3c
       -0.05745858 -0.010237277 -0.05184483 0.02901068
000100 ad 9b c0 3c 7e 10 cc ba 8d 29 28 bd ff 1c ef bc
       0.023511732 -0.001556888 -0.04105525 -0.029188631
000110 09 37 90 3c c9 3b 21 bd 00 92 f6 bc 71 a8 3d 3c
       0.017604368 -0.039363656 -0.030098915 0.011575804
000120 ff e9 d8 3d 88 63 ff bd 59 0b 21 3d c4 a5 85 bb
       0.10591506 -0.12470156 0.039317463 -0.0040785987
000130 73 2a f8 3d b7 23 17 3d 49 6d 23 bd f2 d5 37 3e
       0.121174715 0.036899295 -0.039899144 0.17952707
000140 fa cc 78 3d 2b 95 00 bd b8 31 c2 ba 84 4b c9 bc
       0.060742356 -0.031392258 -0.0014815843 -0.024572141
000150 2d 61 a4 3d db 60 b8 3b c2 d3 21 bd ec 35 88 3d
       0.08026347 0.0056267804 -0.03950859 0.0665091
000160 c6 10 2d 3d d9 60 af bc 0c 28 da bc 1d 27 20 bb
       0.042252325 -0.021408485 -0.026630424 -0.0024437376
000170 14 a6 0c 3d 29 53 45 bb bb 54 97 bb 12 91 88 3c
       0.034338072 -0.0030109382 -0.004618255 0.016670737
000180 a1 8a 66 3a 3b 13 7b 3a 55 12 c9 3a bc 1a 8c bc
       0.0008794461 0.00095777557 0.0015340546 -0.017102592
000190 24 8d 8a ba bc ed 91 3b 1c d5 d0 3b a6 16 8c bc
       -0.0010570628 0.004453389 0.006373061 -0.017100643
0001a0 9f a6 f7 b9 93 5c fd 3b 53 28 dd 3b 4a f8 24 3b
       -0.00047235654 0.007731983 0.006749192 0.0025172406
0001b0 2a c8 a1 ba 9a 84 89 3b 76 f7 87 3c b2 88 b4 bc
       -0.0012342979 0.0041967155 0.01659749 -0.022037838
0001c0 46 43 16 bc f2 75 46 bb 62 3d 20 b9 35 c0 31 3c
       -0.009171313 -0.0030282703 -0.00015281656 0.010849048
0001d0 94 af 75 bb b1 9b e2 bb f9 b6 56 ba d3 5e 77 bc
       -0.0037488686 -0.0069155325 -0.0008190717 -0.015098291
0001e0 5c b2 0e 3d aa d2 47 3d 1b ac 02 3d 71 e8 ef bc
       0.034838066 0.04878489 0.031902414 -0.029285641
0001f0 f7 e3 33 3d c4 e9 f7 3c f3 e0 1a 3d d3 86 2c 3c
       0.043918576 0.030262835 0.037812185 0.0105301915
000200 00 a9 30 3c 16 3b 33 3d e0 ca c5 3d 0e b8 4a 3d
       0.01078248 0.04375752 0.09657836 0.049491934
000210 d2 c6 15 3d fd 1d 80 3d 74 18 97 3d 93 d3 96 bc
       0.036566563 0.0625572 0.07377711 -0.018411433
000220 38 94 ae bc 16 53 27 bc 12 7f b2 bc 2c 33 79 3d
       -0.02131091 -0.01021268 -0.021789107 0.060839817
000230 2d e7 02 bc fa a7 a9 bc 83 1b 4a bc 15 e6 1a bc
       -0.007989687 -0.02070998 -0.012335661 -0.00945427
000240 75 07 1c 3d ad 36 9b 3d b1 3a 4c 3d f9 28 02 bd
       0.03809305 0.07578788 0.04986066 -0.031777356
000250 82 e3 86 3d cd 59 2d 3d bf 36 7d 3d 11 ac 21 3d
       0.065863624 0.04232197 0.061819788 0.039470736
000260 c0 56 98 3b 6c d9 31 3d cc ed eb 3d a8 f0 5d 3d
       0.0046490133 0.04342024 0.115199655 0.054184586
000270 28 3b 4a 3d 09 ef 75 3d 1d 73 8b 3d f6 80 72 bb
       0.049372822 0.060042415 0.068090655 -0.0037003136
000280 b8 16 e1 bc 17 e0 97 bc 45 10 a9 bb f0 29 df 3c
       -0.027476653 -0.018539472 -0.00515941 0.027241677
000290 ca 2b 8f bc bd b3 6a bc e0 ca 92 bb 3f ab 06 bc
       -0.017476935 -0.0143250795 -0.004479751 -0.008219539
0002a0 c7 91 0f bd 26 c8 4b 3d 45 26 a4 bc e4 32 a6 bc
       -0.035051133 0.049751423 -0.02003778 -0.020287938
0002b0 4e a9 07 bd 72 5d e4 bc cf 72 2a 3c 5c ce 08 bc
       -0.033120446 -0.02787659 0.010403349 -0.008349981
0002c0 21 a2 1b bd d6 bf 13 3d 31 f4 a6 3d db 1c 07 bc
       -0.037996415 0.03607162 0.081520446 -0.008246626
0002d0 11 c9 89 bc fb 16 e7 3c f5 bf 9b 3d 69 ec b9 bc
       -0.016819509 0.0282092 0.07604972 -0.022695737
0002e0 d7 39 22 bd ce 45 88 bc 80 09 3e bd a0 30 2a bc
       -0.03960594 -0.016634848 -0.04639578 -0.01038757
0002f0 c0 68 32 bd 4c 43 e8 bc 6e 8e 01 bd 45 85 8b bc
       -0.04355693 -0.028352402 -0.031629972 -0.017031321
000300 2d b2 eb ba fa 78 cd bb 5f c9 db b8 97 bc 8d 3a
       -0.0017982178 -0.006270525 -0.00010480242 0.001081365
000310 cb ee dc bb a2 f3 23 3b f5 66 8d b9 aa a5 3c bc
       -0.0067423335 0.0025017043 -0.00026970325 -0.011514107
000320 41 10 bb b8 c6 1e 28 3c e8 a6 7b 3b fc 97 88 bc
       -8.9198824e-05 0.010261243 0.0038399044 -0.016674034
000330 f1 f0 54 ba f2 ea ca bb e2 78 fc 3b 0c 12 36 3b
       -0.0008123061 -0.0061925584 0.00770484 0.0027781753
000340 13 8d e3 ba 32 fa 89 ba c6 01 02 3d 6f eb 3f 3c
       -0.0017360769 -0.0010526835 0.031739973 0.011713847
000350 d8 cc 04 b9 b6 db 2f 3c a9 bd e0 3b 9f 0c 80 bc
       -0.00012664811 0.0107335355 0.0068585468 -0.015631018
000360 1b 89 2f 3d 7d 27 5f 3c 1b ab 13 3d bb 59 0f b9
       0.042855363 0.013620255 0.03605185 -0.0001367097
000370 54 ef 1f 3c ef 2b e8 3c 52 49 c1 3c 89 06 17 bd
       0.00976165 0.028341262 0.023594532 -0.036871467
000380 fe d7 4e 3d da be 34 3c 00 48 06 3c 78 0e a1 bd
       0.050498955 0.011031831 0.008195877 -0.07864088
000390 46 ad de bc 07 ba 1a 3d 31 b9 32 3c a1 2f 69 3c
       -0.027182233 0.037775066 0.010908411 0.014232547
0003a0 08 72 ff 3c ca bc 82 3b 7b 8b cd 3d 02 84 49 bd
       0.031182304 0.0039897906 0.100363694 -0.049198158
0003b0 91 74 a0 3c 07 74 bc 3d d1 67 8a 3d 0e 8f 17 ba
       0.019586833 0.09201818 0.06758083 -0.00057815097
0003c0 c2 06 8d 3d 05 9b b1 3b f4 4e 3a 3d ed 4f ea bc
       0.068860546 0.005420091 0.04548545 -0.028602565
0003d0 56 44 7f 3c 05 47 12 3d 37 1a 07 3d 23 82 a6 bd
       0.015580257 0.03571226 0.032983985 -0.0813029
0003e0 8d 47 a3 3d 46 4d c2 3b de 51 14 bc 94 93 d7 bd
       0.079726316 0.005929622 -0.009052722 -0.10526195
0003f0 d5 7c 2a bb 7f ed c8 3c e5 cb 88 bc 37 8e 01 3c
       -0.0026014347 0.02452731 -0.016698787 0.007907442

Conv2D f4 [8, 10, 8, 1]
000000 c3 18 1d 3b f8 3c ed 3a ec 6a d7 3b d9 2e 9a 3b
       0.0023971058 0.0018099835 0.0065740254 0.0047052917
000010 12 a7 10 3b 6b 05 e6 3b 7e 56 55 bc a9 6a fb 3b
       0.0022072238 0.007019689 -0.01302111 0.007672627
000020 f8 1a 6b bc 08 ee e0 bb b7 bf 1a 3c 54 fc 25 bb
       -0.014349692 -0.006864313 0.009445122 -0.0025327401
000030 67 61 b2 bc e7 ae c9 bb 3e 0c 40 bc 14 63 ef bb
       -0.02177496 -0.006154883 -0.011721669 -0.007305512
000040 69 59 ba ba b4 e4 39 bc 12 dd 97 ba 41 bd 8c 3c
       -0.001421732 -0.011346031 -0.001158627 0.017180087
000050 80 a0 07 3b 71 1c 5b 3c 6f 5d 85 bc a7 da 96 b9
       0.002069503 0.01337348 -0.016279904 -0.00028773138
000060 56 da fd 3a 2b 8b 3b 3b e3 1f ce bb f8 0d 46 bc
       0.0019367437 0.0028616886 -0.0062904223 -0.012088291
000070 a6 0a 73 3a 63 8d 66 3a af 2f 3d 3c 8e 46 6a bc
       0.0009271301 0.0008794872 0.011547013 -0.014299048
000080 e0 81 9a 3b 9b 53 81 3b 58 ce a7 ba 4e de 16 3b
       0.0047151893 0.003946734 -0.0012802584 0.0023020688
000090 ed a1 51 3b b8 79 e2 3c c2 7e 9f 3b 52 ec 35 3c
       0.0031987384 0.02764593 0.0048674056 0.011103706
0000a0 a6 98 8f 3c c0 dd e2 bb 90 b8 f3 3b d4 0f 17 bc
       0.017528843 -0.0069234073 0.007437773 -0.009220082
0000b0 97 60 ec bb 22 56 07 3c b7 9b 92 3c 89 c8 7d bc
       -0.007213663 0.008260282 0.017896516 -0.015489706
0000c0 e2 41 3b 3b 2b 18 84 bc 69 d8 cb 3b 78 55 c2 bc
       0.0028573205 -0.016124805 0.0062208665 -0.023722395
0000d0 00 18 15 bb 51 47 5b bc df fb 9d bb 6c a5 76 bc
       -0.00227499 -0.013383702 -0.004821285 -0.015054088
0000e0 b9 be 65 ba 7b 73 06 bb 6f cc 83 3c c4 46 3e ba
       -0.00087640766 -0.002051561 0.016088692 -0.00072584697
0000f0 27 23 10 3b f7 38 22 bb e4 fd 82 bb a4 88 8d bb
       0.0021993609 -0.0024753192 -0.0039975513 -0.0043192673
000100 fc 98 04 bc 63 cf a8 3a a9 cd 50 3c 4a 62 35 3b
       -0.008093115 0.0012879189 0.012744346 0.0027676993
000110 da a7 ba 3b c7 dc 4b 3b 75 2a 3f 3c 1d 37 3a 3c
       0.005696279 0.0031106935 0.011667837 0.011365679
000120 33 1b 8a 3c 55 74 30 3c 0c 12 99 bc 02 75 28 3c
       0.016858673 0.010769923 -0.018685363 0.010281803
000130 c0 41 08 3c 79 85 89 bc f5 a8 88 3b 3a cf e8 3b
       0.008316457 -0.016787278 0.004170532 0.0071047815
000140 dc 69 47 3b e1 30 39 bd 7f 75 3c 3c b1 c2 c3 bc
       0.0030428087 -0.04521263 0.011502623 -0.023896547
000150 48 c9 c8 3c a8 23 a1 3b f0 08 15 3d 96 c9 c7 3c
       0.02451004 0.0049175806 0.036385477 0.024388116
000160 c3 8d 8c 3c 27 d5 37 bd 6b 1f e3 3c c8 70 d7 bc
       0.017157441 -0.044881012 0.027724942 -0.026298895
000170 2d 3d 3d 3d 23 49 2a 3c 22 17 d2 3c fa ea a9 3b
       0.04620092 0.010393414 0.025645796 0.005185482
000180 fe 65 b0 3b 78 4b 5d bd 36 72 3b 3d 75 85 bd bc
       0.005383252 -0.05402705 0.045763217 -0.023134926
000190 58 f4 51 3d 16 f3 d3 bb 6c be 08 3c c0 18 d2 bc
       0.051258415 -0.006468187 0.008346181 -0.025646567
0001a0 84 4d 2b 3c 46 df 23 bd f3 76 84 3d 5f b4 9e ba
       0.010455493 -0.040007852 0.06468 -0.0012108198
0001b0 15 01 50 3d 29 fb 54 bb 1c 4b fa 3b 4c f4 33 bd
       0.050782282 -0.0032498336 0.0076383483 -0.04393415
0001c0 b4 7d 8c 3c 6b ba ff bc b3 03 82 3d 9a b2 8c 3b
       0.017149784 -0.03121682 0.06348362 0.004293752
0001d0 90 d0 37 3d 2b 28 ce bc ca db 18 3b 86 e3 8c bd
       0.044876635 -0.025165638 0.0023324364 -0.06879334
0001e0 77 d5 a2 3c c8 9f f3 bc 47 b6 bd 3d 2a 7d 4e 3c
       0.019877179 -0.029739276 0.09263282 0.012603084
0001f0 b3 77 6f 3d 35 5a 9d bc 8f 8b 80 bb 34 b9 80 bd
       0.058463763 -0.019208053 -0.0039228867 -0.06285325
000200 0f 26 fb 3c 66 35 87 bc 98 d6 c4 3d ed 3d b6 3a
       0.030657796 -0.016504955 0.09611243 0.0013903953
000210 42 66 8f 3d 6c 60 c0 bc dc 69 6d 3c 29 2b ac bd
       0.07001926 -0.023483478 0.014490571 -0.0840667
000220 5a 53 2a 3d 58 e3 c1 bc 3a 8c cb 3d 38 3b 3d bc
       0.041583396 -0.023667976 0.099388555 -0.011549763
000230 1c 66 bd 3d 1b b2 01 bd 8c 64 f4 3c 48 8b 86 bd
       0.092479914 -0.031663995 0.0298331 -0.065695345
000240 8e 52 51 3d f1 fd e2 bc 1b 04 ec 3d 9e 7b 0b bc
       0.05110412 -0.02770898 0.115242206 -0.008513359
000250 2c 66 ca 3d 43 c9 28 bd 60 fa 52 3d 14 47 8c bd
       0.09882769 -0.041207563 0.051508307 -0.068494946
000260 89 ce 5a 3d 9a 52 14 bd 6c ed e0 3d 13 c6 82 bc
       0.053419624 -0.036211587 0.10982785 -0.01596359
000270 a7 6f c6 3d 84 76 fb bc 05 f4 99 3d 01 e6 b1 bd
       0.09689265 -0.030696161 0.07517246 -0.08686448
000280 ba b3 00 bd f7 0d 9f bc 22 63 d9 ba ba 4c 08 3d
       -0.0314214 -0.019415839 -0.001658533 0.033276297
000290 5e e8 a5 3c dc e9 6f 3d 23 d5 5d 3d 72 63 8b 3d
       0.020252403 0.058572635 0.05415834 0.06806077
0002a0 99 57 44 bd 0c 75 a1 bc e5 a1 89 bc 0f f5 92 3b
       -0.047935102 -0.019709133 -0.01680083 0.0044847797
0002b0 dd f1 67 3b 6f 16 13 3d 72 ea 63 3d 76 e5 57 3d
       0.0035391964 0.035910066 0.055643506 0.052709065
0002c0 44 31 29 bd 66 b8 38 bd 1c 4d 9b bc 16 88 33 bc
       -0.04130675 -0.04509773 -0.018957667 -0.010957738
0002d0 9c d3 fa 3b 31 c6 fe 3c d7 8a 28 3d 9d 8a 03 3d
       0.0076546203 0.031100364 0.041148033 0.032114614
0002e0 7b 9b 09 bd e6 6f 0c bd bf ad cd bc ae 86 8f bb
       -0.033595543 -0.034286402 -0.025107263 -0.0043800687
0002f0 b4 4c 3f bc 84 4c f5 3c a3 6d 32 3d 25 ef 47 3d
       -0.011676002 0.029943712 0.04356159 0.04881205
000300 e9 58 6e bd 84 f1 0f bd 66 a1 a6 bc ae 5f 65 bc
       -0.05819026 -0.035142437 -0.020340633 -0.013999863
000310 06 18 20 bb 28 68 f3 3c 0f cf 55 3d cb dd ca 3c
       -0.0024428382 0.029712752 0.05219942 0.024763962
000320 fb ff 73 bd 6e a8 14 bd 2d 41 ce bc 26 bf ef bb
       -0.059570294 -0.03629344 -0.025177563 -0.007316488
000330 47 16 77 3c 1d e6 a3 3b 31 8f 42 3d 75 42 10 3d
       0.015080995 0.005001797 0.04749984 0.03521963
000340 73 66 4d bd 40 c5 3b bd e7 4a 05 bd 6a 21 91 bc
       -0.05014653 -0.04584241 -0.032542136 -0.017716128
000350 1d 42 d5 3a 8d d8 4f 3c 2d 24 0c 3d fe cf d5 3c
       0.0016270314 0.012685907 0.034214187 0.026100155
000360 48 7c 90 bd b2 22 27 bd f6 29 32 bd 06 a6 e4 bb
       -0.07054955 -0.040804572 -0.04349705 -0.0069777993
000370 be 90 69 bc 40 05 dd 3c 59 88 25 3d 95 97 29 3d
       -0.014255701 0.026980042 0.040413234 0.041404326
000380 1f ee 8c bd 02 8c bc bc 10 1d 32 bd 22 ad e9 39
       -0.068813555 -0.02301598 -0.043484747 0.00044570217
000390 30 7c 8d bc 9f 41 23 3d 94 33 cc 3c c1 35 51 3d
       -0.017271131 0.039857503 0.024926938 0.051076654
0003a0 00 84 5e bd 69 0b 2d bd e6 19 1a bd 23 25 93 bc
       -0.054325104 -0.04224721 -0.037622355 -0.017962044
0003b0 3c a0 69 bc c5 da fc 3c e1 f4 ec 3c e7 58 1f 3d
       -0.014259394 0.030866036 0.028925361 0.038903143
0003c0 b1 ca 7e bd e2 b5 2c bd 18 96 84 bd e1 61 09 bb
       -0.06220502 -0.042165644 -0.064739406 -0.0020962881
0003d0 fc f0 6a bd d2 c4 ce 3b 45 29 7a bd 66 d8 b3 bc
       -0.057358727 0.006310084 -0.061074514 -0.021953773
0003e0 3d 72 6a bd 33 7e 09 bd 27 83 49 bd 83 de 6d bb
       -0.057237852 -0.03356762 -0.049197342 -0.0036295957
0003f0 5f c4 48 bd db f1 5a bc 92 50 80 bd e7 4c 87 bc
       -0.0490154 -0.013363327 -0.062653676 -0.016516162

Conv2D_1 f4 [8, 10, 8, 8]
000000 27 6a 06 bc 6f 13 89 bc d6 37 c8 3c 10 10 9f 3c
       -0.00820402 -0.0167329 0.024440687 0.019416839
000010 9f 28 52 bb 24 e8 a0 bc 29 40 31 3c 46 5e ed bc
       -0.003206767 -0.019641943 0.01081852 -0.028975617
000020 3a 62 10 3c 57 5a 92 bc 87 45 48 3b b4 bd 02 3b
       0.008812482 -0.017865343 0.003055902 0.0019949498
000030 46 09 04 3a 02 b7 c3 bc 9a d4 95 3c a0 7e 04 bd
       0.0005036782 -0.023890976 0.018289853 -0.03234732
000040 86 f6 fa ba c1 f6 72 bc b1 46 42 ba af 7f ea 3b
       -0.0019146956 -0.0148293385 -0.00074110465 0.0071563344
000050 02 26 e9 3b 46 f1 aa bb 7a 4b 71 3c 13 13 85 bc
       0.0071151266 -0.0052167503 0.014727468 -0.016244447
000060 c1 95 92 ba 56 60 9c 3b df b2 f5 bb 4c cb 9f bb
       -0.0011183546 0.0047722263 -0.0074981297 -0.00487653
000070 1a 3f af 3b f0 0f 7e 3a 98 81 01 3c 8f 5e 49 3c
       0.0053480985 0.0009691706 0.007904433 0.012290611
000080 31 e3 37 bc 72 0a 9a 3b 38 1a a6 ba e7 73 64 bc
       -0.0112236 0.004700952 -0.0012672609 -0.013943649
000090 7a 37 f3 3a 97 97 18 3b 37 44 d7 ba d0 c3 ff 38
       0.0018555962 0.0023283714 -0.0016423528 0.000121958205
0000a0 87 a6 0a bc 4f f9 8a 3b 97 1e 97 3c db a5 c4 bb
       -0.008462555 0.0042411457 0.018447204 -0.006001217
0000b0 af 05 81 3a e6 d3 6a 3b c4 e3 74 bb c8 18 1c ba
       0.0009843613 0.0035831868 -0.0037367204 -0.00059546204
0000c0 f1 14 78 3b 8f 34 49 3b 14 03 dc 3c b5 61 21 ba
       0.003785428 0.0030701493 0.026856937 -0.0006156222
0000d0 0e 7b ac 3b 38 d5 bc 3b bf dc 4e 3b 1d 87 e6 3b
       0.0052636927 0.0057627223 0.003156468 0.0070351497
0000e0 c7 48 7b 3c 76 ab 34 3c cf e7 b3 3c 98 0a 56 ba
       0.015337176 0.011027208 0.02196112 -0.0008165031
0000f0 f3 d1 06 3c ed 15 e6 3b 20 f8 e4 3a f1 7d 39 3b
       0.008228767 0.0070216567 0.0017468967 0.0028303827
000100 c8 83 85 bc d0 6e 56 bc 88 56 ac 3c 01 7a 25 3c
       -0.01629819 -0.013087943 0.021037355 0.010099889
000110 d1 fb 54 ba 38 82 ab bc db be 96 3c 3a db d6 bc
       -0.0008124682 -0.020936117 0.018401554 -0.026227582
000120 be 47 34 3c c6 f0 e1 bc c5 ae 6a 3c 79 95 6f 3c
       0.011003433 -0.02758063 0.014323895 0.014623039
000130 ba 4c a0 3b 00 b0 b7 bc 4f 1a e6 3c ce a7 fd bc
       0.004891959 -0.02242279 0.028088717 -0.030963805
000140 ad df 54 3c 0d 9f 11 bc 9a 94 76 bb e9 93 57 b9
       0.012992782 -0.008888018 -0.0037625195 -0.00020559099
000150 3f ce 35 3c e0 bf 23 bc cd f5 ad 3c ec 2c ab bc
       0.011096536 -0.009994477 0.021235371 -0.020895444
000160 ae 89 2a bc cd 6d 71 3a 3d 84 8e bb 30 ee 7c bb
       -0.010408802 0.0009209782 -0.00434926 -0.003859412
000170 98 10 0a 3c c3 df ae 3a 3d 07 1a 3c 64 48 52 3b
       0.008426808 0.0013341833 0.00940114 0.0032086605
000180 63 cf 2f 3b 78 95 e1 b9 81 f4 02 3b ed 4e 60 bc
       0.0026826493 -0.00043026707 0.0019982161 -0.013690692
000190 03 31 83 3b 71 e8 8c ba f1 47 c2 bb 40 56 b4 3b
       0.0040036454 -0.0010750425 -0.0059289862 0.005503446
0001a0 d2 61 f2 bb 64 6e 50 3b bd c7 58 3c f1 ae af bb
       -0.007396915 0.003180408 0.013231215 -0.005361431
0001b0 a6 30 93 bb 90 1c ef ba 1c c6 6d bb da fa 3e bb
       -0.0044918833 -0.0018242765 -0.0036281412 -0.0029141218
0001c0 f1 f3 45 bc d3 c0 06 3b 2d d1 99 3c dd bb d7 3a
       -0.012082086 0.002056171 0.0187765 0.0016459186
0001d0 4b b6 d3 b9 39 3a 2c bb 07 f9 5b 3b fb 2d e4 bb
       -0.00040380875 -0.002627982 0.003356518 -0.006963489
0001e0 09 8c c8 3b 11 a3 49 3b 37 8a b8 3c 6b 15 b8 b9
       0.006120209 0.0030767361 0.022526843 -0.00035111172
0001f0 0b c2 0c 3c 67 05 e4 38 64 ab 3e bb c3 9d 87 3b
       0.008591185 0.000108728935 -0.0029093856 0.0041386797
000200 fc 38 c4 39 64 1f be bc e8 89 d7 3c e8 65 f2 3b
       0.0003742649 -0.023208328 0.026310876 0.007397402
000210 b7 14 68 ba ff 8a 9e bc 79 65 1f 3c 20 7b a4 bc
       -0.00088531844 -0.019353388 0.009728783 -0.020078242
000220 a8 5c 50 bc 69 38 a6 bc a1 23 44 ba 60 82 f4 3b
       -0.0127174035 -0.02029057 -0.0007482116 0.007461831
000230 b7 10 15 3c cd de 93 bc 51 5c ae 3c bf 56 f1 bc
       0.009098223 -0.018050576 0.021284254 -0.02946031
000240 2c c7 7b 3c 3a 53 2d bc 11 4a b6 bb e3 aa 7c 3a
       0.0153673105 -0.010578925 -0.0055630286 0.0009638501
000250 17 45 5f 3c f4 28 f7 bb 1e 49 9d 3c c2 39 b2 bc
       0.013627312 -0.007542724 0.019199904 -0.021756057
000260 c8 67 2a bc c4 37 ec 3b b9 b2 47 ba 4c 0c 57 bc
       -0.01040072 0.007208796 -0.00076178793 -0.01312549
000270 7a d8 35 3c 21 8b c0 3b a1 21 16 3c 48 23 bd 3a
       0.011098975 0.0058759605 0.009163291 0.001443007
000280 4e 5d b3 3b 88 d8 ce 3b a1 cf a5 3a 97 f8 71 bc
       0.0054737693 0.0063124336 0.0012650379 -0.014768741
000290 f9 5a e7 ba 50 a6 88 3b fd bf 33 bb 83 ca 45 ba
       -0.0017651013 0.0041702166 -0.0027427666 -0.000754513
0002a0 80 4e 3b 3c 5c 52 1d 3b 9a 52 86 3c b0 6d cf ba
       0.01143229 0.002400539 0.01639681 -0.0015825536
0002b0 6b ec 9f bb ea 9a bb 37 bf e6 d4 bb c1 31 ae bb
       -0.004880478 2.2364275e-05 -0.0064972336 -0.0053159897
0002c0 84 10 fd 3b 8c 1d 9d 3b 7f 67 f2 3c 38 7a 7b 3b
       0.007722916 0.004794782 0.029590366 0.0038372409
0002d0 69 81 b9 3a dd 1a 95 3b fd f5 c0 bb 1a aa f5 bb
       0.0014152947 0.0045503215 -0.005888699 -0.0074970843
0002e0 92 86 37 ba 26 5f f9 3b ad 2f cb 3c 9b f3 4d 3a
       -0.00070009485 0.0076102195 0.024803007 0.00078564294
0002f0 41 64 cf 3b 66 d2 94 3c db de f9 3b 6b cd 21 3a
       0.00632909 0.018166732 0.0076254434 0.0006172272
000300 30 f5 b1 bb b9 4f 80 bc ac a6 a1 3c 7d 5a 15 bb
       -0.00543084 -0.015663015 0.019732796 -0.002278953
000310 e2 a3 82 ba 56 32 82 bc 45 5d 40 3b 8f 87 f4 bc
       -0.0009967054 -0.015893143 0.0029352468 -0.029849796
000320 86 f5 7c bc d8 19 de bc 75 11 9d 3b 9a 6d 77 3b
       -0.015439397 -0.027111933 0.004793341 0.0037754537
000330 69 b9 32 3c 35 c1 7a bc d5 1d b0 3c 2e a3 a5 bc
       0.010908463 -0.015304853 0.0214986 -0.020219412
000340 7c 20 01 3c fa 78 38 bb 77 8f da ba 3f c7 7c bb
       0.00788128 -0.002814828 -0.0016674836 -0.0038570908
000350 8a bd 17 3c 3a 4c 32 bb 7d 8d 4a 3c ba 2d c9 bb
       0.009261498 -0.002720608 0.012362835 -0.0061394842
000360 38 7f e9 3b 56 66 17 3c 05 33 a6 bb 18 e9 5e bc
       0.0071257614 0.009240707 -0.005072 -0.013605379
000370 d9 26 51 3c 67 ac b1 3b d2 6f 05 3b 02 af 88 3b
       0.01276561 0.0054221633 0.002036084 0.004171253
000380 83 ac 21 bc 68 b8 2a 3c d9 80 04 bb 19 f1 76 bc
       -0.00986779 0.010419942 -0.00202184 -0.015072131
000390 71 98 a8 3b 4e 1d 9f 3c 25 74 17 bc f0 21 06 3b
       0.0051451256 0.019423153 -0.009244 0.0020467006
0003a0 f1 96 08 bc b0 c8 da 3b 99 bf 6f 3c 99 32 21 bc
       -0.0083367685 0.006676756 0.014633083 -0.009838724
0003b0 59 b4 48 3a 81 33 26 3c aa 08 aa bb dd bd 52 3b
       0.00076562684 0.010144115 -0.005189021 0.0032156624
0003c0 cf bd 9c 3b 65 a1 b8 3c df 15 e6 3c 2f 0f c3 bb
       0.004783369 0.022537896 0.0280866 -0.0059527378
0003d0 91 29 96 3b 93 b9 36 3c 79 15 2b 3a 51 6a dd bb
       0.004582592 0.011152643 0.0006526332 -0.0067570587
0003e0 9e 7b 8b 3a d7 4d c4 3c 54 26 cf 3c 7f 44 bd 39
       0.0010641699 0.023962898 0.025286831 0.00036099923
0003f0 45 dc ee 3b 6e 7f 69 3c 32 ad f1 3b 68 f3 83 3c
       0.007289442 0.014251573 0.007375383 0.016107276
