tensorflow-code/embed_conv_models/tiny_embedding_conv.tflite (tflite, 8872 bytes, 3 tensors)

Conv2D i1 [8, 10, 8, 1]
11 8 30 22 10 32 -60 35
-66 -32 43 -12 -100 -28 -54 -34
-7 -52 -5 79 10 61 -75 -1
9 13 -29 -56 4 4 53 -66
22 18 -6 11 15 127 22 51
81 -32 34 -42 -33 38 82 -71
13 -74 29 -109 -10 -61 -22 -69
-4 -9 74 -3 10 -11 -18 -20
-37 6 59 13 26 14 54 52
77 49 -86 47 38 -77 19 33
3 -50 13 -26 27 5 40 27
19 -49 31 -29 51 11 28 6
6 -60 50 -25 56 -7 9 -28
12 -44 71 -1 56 -4 8 -48
19 -34 70 5 49 -28 3 -76
22 -33 102 14 64 -21 -4 -69
34 -18 106 2 77 -26 16 -93
46 -26 110 -13 102 -35 33 -72
56 -31 127 -9 109 -45 57 -75
59 -40 121 -18 107 -34 83 -96
-57 -35 -3 60 36 105 97 123
-86 -35 -30 8 6 65 100 95
-74 -81 -34 -20 14 56 74 58
-60 -62 -45 -8 -21 54 78 88
-105 -63 -37 -25 -4 53 94 45
-107 -65 -45 -13 27 9 86 63
-90 -83 -59 -32 3 23 62 47
-127 -73 -78 -13 -26 49 73 75
-124 -41 -78 1 -31 72 45 92
-98 -76 -68 -32 -26 56 52 70
-117 -79 -121 -4 -108 12 -115 -41
-107 -63 -92 -7 -92 -25 -118 -31
00000000: 0b08 1e16 0a20 c423 bee0 2bf4 9ce4 cade
00000010: f9cc fb4f 0a3d b5ff 090d e3c8 0404 35be
00000020: 1612 fa0b 0f7f 1633 51e0 22d6 df26 52b9
00000030: 0db6 1d93 f6c3 eabb fcf7 4afd 0af5 eeec
00000040: db06 3b0d 1a0e 3634 4d31 aa2f 26b3 1321
00000050: 03ce 0de6 1b05 281b 13cf 1fe3 330b 1c06
00000060: 06c4 32e7 38f9 09e4 0cd4 47ff 38fc 08d0
00000070: 13de 4605 31e4 03b4 16df 660e 40eb fcbb
00000080: 22ee 6a02 4de6 10a3 2ee6 6ef3 66dd 21b8
00000090: 38e1 7ff7 6dd3 39b5 3bd8 79ee 6bde 53a0
000000a0: c7dd fd3c 2469 617b aadd e208 0641 645f
000000b0: b6af deec 0e38 4a3a c4c2 d3f8 eb36 4e58
000000c0: 97c1 dbe7 fc35 5e2d 95bf d3f3 1b09 563f
000000d0: a6ad c5e0 0317 3e2f 81b7 b2f3 e631 494b
000000e0: 84d7 b201 e148 2d5c 9eb4 bce0 e638 3446
000000f0: 8bb1 87fc 940c 8dd7 95c1 a4f9 a4e7 8ae1

Conv2D_1 i1 [8, 10, 8, 8]
-20 -41 60 48 -8 -49 27 -72
22 -44 8 5 1 -59 45 -80
-5 -37 -2 18 18 -13 36 -40
-3 12 -19 -12 13 2 20 30
-28 12 -3 -34 5 6 -4 0
-21 10 46 -15 2 9 -9 -1
9 8 66 -2 13 14 8 17
38 27 54 -2 20 17 4 7
-40 -32 52 25 -2 -52 46 -65
27 -68 35 36 12 -55 69 -77
32 -22 -9 -1 27 -25 53 -52
-26 2 -11 -10 21 3 23 8
7 -1 5 -34 10 -3 -15 14
-18 8 33 -13 -11 -5 -9 -7
-30 5 46 4 -1 -6 8 -17
15 8 56 -1 21 0 -7 10
1 -57 65 18 -2 -48 24 -50
-31 -50 -2 18 23 -45 53 -73
38 -26 -14 2 34 -19 47 -54
-26 18 -2 -32 27 15 23 4
14 16 3 -37 -4 10 -7 -2
28 6 41 -4 -12 0 -16 -13
19 12 73 9 4 11 -15 -19
-2 19 61 2 16 45 19 2
-13 -39 49 -6 -2 -39 7 -74
-38 -67 12 9 27 -38 53 -50
19 -7 -4 -10 23 -7 31 -15
18 23 -13 -34 32 13 5 10
-24 26 -5 -37 13 48 -23 5
-21 17 36 -24 2 25 -13 8
12 56 69 -15 11 28 2 -17
3 59 63 1 18 35 18 40
00000000: ecd7 3c30 f8cf 1bb8 16d4 0805 01c5 2db0
00000010: fbdb fe12 12f3 24d8 fd0c edf4 0d02 141e
00000020: e40c fdde 0506 fc00 eb0a 2ef1 0209 f7ff
00000030: 0908 42fe 0d0e 0811 261b 36fe 1411 0407
00000040: d8e0 3419 fecc 2ebf 1bbc 2324 0cc9 45b3
00000050: 20ea f7ff 1be7 35cc e602 f5f6 1503 1708
00000060: 07ff 05de 0afd f10e ee08 21f3 f5fb f7f9
00000070: e205 2e04 fffa 08ef 0f08 38ff 1500 f90a
00000080: 01c7 4112 fed0 18ce e1ce fe12 17d3 35b7
00000090: 26e6 f202 22ed 2fca e612 fee0 1b0f 1704
000000a0: 0e10 03db fc0a f9fe 1c06 29fc f400 f0f3
000000b0: 130c 4909 040b f1ed fe13 3d02 102d 1302
000000c0: f3d9 31fa fed9 07b6 dabd 0c09 1bda 35ce
000000d0: 13f9 fcf6 17f9 1ff1 1217 f3de 200d 050a
000000e0: e81a fbdb 0d30 e905 eb11 24e8 0219 f308
000000f0: 0c38 45f1 0b1c 02ef 033b 3f01 1223 1228

MatMul i1 [4, 96] scale=0.001413599 zero_point=0
-0.007067995 -0.012722391 -0.033926375 0.004240797 -0.009895193 -0.008481594 0.001413599 0.02827198
-0.001413599 0.004240797 -0.004240797 -0.008481594 0.008481594 -0.007067995 0.008481594 0.02968558
0.004240797 0.005654396 -0.005654396 -0.002827198 0.007067995 -0.01413599 -0.001413599 0.021203985
-0.1300511 -0.12581031 -0.11450152 -0.11874232 -0.10601993 -0.073507145 -0.12298311 0.05654396
0.005654396 -0.025444781 -0.024031183 -0.073507145 -0.01413599 -0.011308792 -0.038167175 0.04240797
0.001413599 0.0 -0.07067995 -0.02968558 0.008481594 -0.055130363 -0.049475964 0.02827198
-0.1597367 -0.1441871 -0.14701429 -0.06785275 -0.14560069 -0.12439671 -0.16539109 0.06785275
0.008481594 -0.039580774 -0.022617584 -0.02827198 -0.05795756 -0.009895193 -0.05230316 0.02968558
0.024031183 -0.001413599 -0.040994372 -0.02968558 0.016963188 -0.039580774 -0.02968558 0.011308792
0.10601993 -0.12439671 0.039580774 -0.004240797 0.121569514 0.036753573 -0.039580774 0.17952707
0.060784757 -0.031099178 -0.001413599 -0.024031183 0.080575146 0.005654396 -0.039580774 0.06643915
0.04240797 -0.021203985 -0.026858382 -0.002827198 0.033926375 -0.002827198 -0.004240797 0.016963188
0.001413599 0.001413599 0.001413599 -0.016963188 -0.001413599 0.004240797 0.007067995 -0.016963188
0.0 0.007067995 0.007067995 0.002827198 -0.001413599 0.004240797 0.016963188 -0.022617584
-0.008481594 -0.002827198 0.0 0.011308792 -0.004240797 -0.007067995 -0.001413599 -0.015549589
0.035339974 0.049475964 0.032512777 -0.02968558 0.04382157 0.02968558 0.038167175 0.009895193
0.011308792 0.04382157 0.09612473 0.049475964 0.036753573 0.062198356 0.073507145 -0.018376786
-0.021203985 -0.009895193 -0.021203985 0.060784757 -0.008481594 -0.021203985 -0.012722391 -0.009895193
0.038167175 0.07633435 0.049475964 -0.031099178 0.06643915 0.04240797 0.062198356 0.039580774
0.004240797 0.04382157 0.11450152 0.053716764 0.049475964 0.05937116 0.06785275 -0.004240797
-0.026858382 -0.018376786 -0.005654396 0.026858382 -0.016963188 -0.01413599 -0.004240797 -0.008481594
-0.035339974 0.049475964 -0.019790387 -0.019790387 -0.032512777 -0.02827198 0.009895193 -0.008481594
-0.038167175 0.036753573 0.081988744 -0.008481594 -0.016963188 0.02827198 0.07633435 -0.022617584
-0.039580774 -0.016963188 -0.046648767 -0.009895193 -0.04382157 -0.02827198 -0.031099178 -0.016963188
-0.001413599 -0.005654396 0.0 0.001413599 -0.007067995 0.002827198 0.0 -0.011308792
0.0 0.009895193 0.004240797 -0.016963188 -0.001413599 -0.005654396 0.007067995 0.002827198
-0.001413599 -0.001413599 0.031099178 0.011308792 0.0 0.011308792 0.007067995 -0.015549589
0.04240797 0.01413599 0.036753573 0.0 0.009895193 0.02827198 0.024031183 -0.036753573
0.050889563 0.011308792 0.008481594 -0.07916155 -0.026858382 0.038167175 0.011308792 0.01413599
0.031099178 0.004240797 0.10036553 -0.049475964 0.019790387 0.091883935 0.06785275 0.0
0.06926635 0.005654396 0.04523517 -0.02827198 0.015549589 0.035339974 0.032512777 -0.081988744
0.07916155 0.005654396 -0.008481594 -0.10460632 -0.002827198 0.024031183 -0.016963188 0.008481594
00000000: fbf7 e803 f9fa 0114 ff03 fdfa 06fb 0615
00000010: 0304 fcfe 05f6 ff0f a4a7 afac b5cc a928
00000020: 04ee efcc f6f8 e51e 0100 ceeb 06d9 dd14
00000030: 8f9a 98d0 99a8 8b30 06e4 f0ec d7f9 db15
00000040: 11ff e3eb 0ce4 eb08 4ba8 1cfd 561a e47f
00000050: 2bea ffef 3904 e42f 1ef1 edfe 18fe fd0c
00000060: 0101 01f4 ff03 05f4 0005 0502 ff03 0cf0
00000070: fafe 0008 fdfb fff5 1923 17eb 1f15 1b07
00000080: 081f 4423 1a2c 34f3 f1f9 f12b faf1 f7f9
00000090: 1b36 23ea 2f1e 2c1c 031f 5126 232a 30fd
000000a0: edf3 fc13 f4f6 fdfa e723 f2f2 e9ec 07fa
000000b0: e51a 3afa f414 36f0 e4f4 dff9 e1ec eaf4
000000c0: fffc 0001 fb02 00f8 0007 03f4 fffc 0502
000000d0: ffff 1608 0008 05f5 1e0a 1a00 0714 11e6
000000e0: 2408 06c8 ed1b 080a 1603 47dd 0e41 3000
000000f0: 3104 20ec 0b19 17c6 3804 fab6 fe11 f406
