tensorflow-code/single_fc_models/single_fc_float_model.tflite (tflite, 32332 bytes, 2 tensors)

bias f4 [4]
00000000: 18cc 733c b59a 2f3c 2e8d e0bc 219a ed3a
0.014880203 0.010718037 -0.02741107 0.0018127599

MatMul f4 [4, 1960]
00000000: dfdf 5e3d 604d 493d 857b 73bd 0de9 2ebd
00000010: 19f1 b4bd d753 39bd 5ff2 94bd 0d4b f7bc
00000020: 0b3b 5fbd aadf 81ba 8db6 20bc 0928 a13c
00000030: a709 8bbb 4779 093d c419 b73c 549b 103d
00000040: 7e41 3d3c de35 ed3c 0ab1 e53b 67a1 093d
00000050: 48d7 c33b c94f 203d 3d58 923c 9162 3e3d
00000060: 5b04 fe39 3d2d 003d 177b 033c fc0a 453d
00000070: 4732 c63c f39c 7b3d 1bc6 0d3d 0566 a33d
00000080: 61ab 633d c91e b43d 023e 953d 96ec b93d
00000090: 9377 763d 895e 9c3d 259e 423d 6789 bf3d
000000a0: 2f94 e93c 28a2 f83c 43bf 8fbd d677 4dbd
000000b0: 3724 c6bd fad0 40bd 785f b0bd 970b 0cbd
000000c0: 21a7 92bd 1d7e 26bc 16fa edbc 4455 2d3a
000000d0: 3573 d6bc edaa 813c 792b a7ba 582d 5b3c
000000e0: 76e5 8fbc 9b5d f73b db3e 64bc 1ff4 643c
000000f0: be2b 86bc cb9b a73c 894d 5fbb 4a7b fc3c
00000100: a3e2 34bc 38d0 973c 8cca b8bb 205a 0e3d
00000110: 548c dd3b 82d9 243d 73d2 983c d2fb 753d
00000120: 57c7 1d3d 5d14 893d b771 513d 4054 8b3d
00000130: 7e2d 263d 6f3a 623d abd0 fd3c ee16 963d
00000140: 718f 813c 0b44 a53c dd92 9fbd 23e7 5abd
00000150: 38ad babd a0a1 23bd bda6 a0bd c875 d9bc
00000160: a738 78bd 712a c0bb edcc f1bc 2641 0bbc
00000170: 029a 07bd 1266 f43b f0bd 98bb 0002 863b
00000180: d9af 9ebc 3d32 54ba f03e b7bc 6993 ed3a
00000190: 1f3b 57bc 7b03 823c 2db3 c6ba d974 943c
000001a0: c61d 3dbc 94fd 173c 52d6 00bc 7979 9e3c
000001b0: df8b 3c3b 7487 d73c 43fa 7b3c 1bb9 2a3d
000001c0: 0f37 0f3d 7676 483d f8f0 2f3d 5ac0 423d
000001d0: 0021 153d 205d 1e3d 276b cb3c 458f 663d
000001e0: cc87 78bc 2513 aebb b546 a6bd 5543 7fbd
000001f0: 9317 b7bd 55ac 0bbd 8668 a9bd 6638 f2bc
00000200: f405 77bd 54cd 90bc ffea fcbc 7bfa fbbc
00000210: e939 0dbd fb8c 69bc 399c 5ebc 3b23 dcbb
00000220: 7012 bebc 9337 85bc fdd0 f6bc 0b86 17bc
00000230: 2c02 dbbc c989 1d3c 6cab 50bb f4ad 823b
00000240: 62a2 75bc eed7 f2bb bdd4 abbb fd5c 863c
00000250: b990 123c c5e2 a43c fa12 473c 9c04 bc3c
00000260: 5a4b d83c da85 c23c b5d8 143d 8486 0f3d
00000270: c1df f63c a6f2 ae3c 8ffa b53c 3792 253d
00000280: 87e5 fbbc 1b3a 9dbc 05fe b8bd 6d9e 95bd
00000290: a9e2 b1bd 9217 1dbd b164 9fbd 874c 31bd
000002a0: f06d 83bd aa68 09bd 5656 1bbd 406d 16bd
000002b0: 6df0 47bd 9ec7 bcbc a9c5 cfbc a67f 2ebc
000002c0: 6195 04bd b814 96bc d9b8 00bd 58fa f3bb
000002d0: b8a3 b3bc 0ad8 883b ea22 a7bb f4ab 7bba
000002e0: 05fb 8abc ac43 42bc 5fc3 75bb d805 8d3b
000002f0: bb6f ad3b ab28 8dbb cea1 063b e27a 603b
00000300: 28da 843c ceb7 66bb f19f c63c 57ba 0b3c
00000310: b2e2 2b3c b997 7fbc fcba f03b 5e7a 953c
00000320: 9e65 813c f33e 053c 8fb1 6cbd 5c79 47bd
00000330: aaa6 33bd b2fb 8ebc 3cf6 1fbd 40c1 96bc
00000340: 798d fabc 9a44 a1bc cfaa 47bc 5b74 b2bc
00000350: 3be4 86bc e05e 8ebb 5b74 09bb 4892 1fbc
00000360: 319b e1bb 6050 95bb 56c8 96bb f838 1a3b
00000370: a7cd d23a 788b 3a3c 0940 833c 3af5 323c
00000380: 663a 7d3a ac9b 6cbb a3f6 363c 1c97 ff3b
00000390: 6c58 7e3c 5601 ebbb 5547 1c3c beb3 acbb
000003a0: ad75 c33c 6f8f 1ebc aa02 d73c ccfa 10bb
000003b0: 232b a83c b1ec 77bc 567a 593c cafc 0f3c
000003c0: a6af b23c 4feb 02bc f734 f8bc cde3 65bd
000003d0: d910 febc 4445 96bc 4df5 b6bc 3125 66bc
000003e0: 9f6f 7bbc a0d7 bfbc 8b5c 663b 5b18 48bc
000003f0: 4cfc 13bc aba4 d7bc 62ae a93b 9fa9 24bc
0.05441272 0.049146056 -0.05944397 -0.042702723 -0.08835048 -0.04524597 -0.07272791 -0.030187154
-0.054499667 -0.0009908576 -0.0098091485 0.01967241 -0.004243094 0.033562925 0.022351153 0.035304382
0.011551259 0.02895635 0.00700963 0.03360119 0.0059765913 0.03913859 0.01786434 0.04648072
0.000484499 0.031293143 0.008024952 0.04810618 0.024193896 0.061428975 0.034612756 0.07978443
0.05558336 0.08794934 0.07287218 0.09078328 0.06017263 0.07635219 0.0475141 0.09352379
0.028513042 0.03035076 -0.07018902 -0.050163113 -0.09674876 -0.047074296 -0.08611959 -0.03419074
-0.071607836 -0.010161904 -0.029049914 0.0006612132 -0.026177982 0.015828574 -0.0012754045 0.01337751
-0.01756547 0.0075490004 -0.013931002 0.013974219 -0.01637828 0.02046003 -0.0034073314 0.030820508
-0.0110403625 0.018531904 -0.00563938 0.03475392 0.006761113 0.040246494 0.018655038 0.060054608
0.038520183 0.06693337 0.051133838 0.06803179 0.04057073 0.055231508 0.03098329 0.07328592
0.015815469 0.020174047 -0.07791684 -0.053443085 -0.0911507 -0.03994906 -0.07844303 -0.02654542
-0.060600903 -0.0058644344 -0.029516662 -0.008499419 -0.033105858 0.007458457 -0.004661314 0.004089594
-0.01937096 -0.0008094644 -0.022368878 0.0018125597 -0.013136654 0.0158708 -0.00151596 0.018122124
-0.011542743 0.009276766 -0.007863598 0.019345032 0.0028769893 0.026309706 0.015379491 0.041680437
0.034964617 0.0489411 0.042954415 0.047546722 0.036408424 0.03866303 0.024831368 0.056288976
-0.015169095 -0.005312341 -0.08118955 -0.062320072 -0.08940043 -0.034099896 -0.082718894 -0.029567908
-0.06030841 -0.017676033 -0.030873774 -0.030759087 -0.034479056 -0.014254804 -0.013587051 -0.006718067
-0.023202151 -0.016261851 -0.03012895 -0.009248267 -0.026734434 0.00961537 -0.0031840457 0.003988022
-0.014992328 -0.0074109947 -0.0052438662 0.016401762 0.008945637 0.020127663 0.01215052 0.022951417
0.026403118 0.023745466 0.03633948 0.035040393 0.030135991 0.021355938 0.022214202 0.040422644
-0.030749096 -0.019192746 -0.090328254 -0.07305608 -0.0868581 -0.038352557 -0.07782877 -0.043285873
-0.06417453 -0.03354708 -0.037924133 -0.036725283 -0.048813272 -0.023044404 -0.025362806 -0.010650551
-0.03236902 -0.018320426 -0.031426284 -0.007445615 -0.021928653 0.0041761445 -0.0051005976 -0.0009600513
-0.016965399 -0.011856955 -0.0037500483 0.004303675 0.0052928603 -0.0043078265 0.002054322 0.0034252931
0.016217306 -0.003520477 0.024246188 0.008528314 0.01049106 -0.015600138 0.007346509 0.018246826
0.015795525 0.008132684 -0.05778652 -0.04869972 -0.043860115 -0.017454002 -0.039053187 -0.018402696
-0.030585038 -0.019686032 -0.01218672 -0.021783998 -0.01646625 -0.004344806 -0.0020973894 -0.009739466
-0.0068849553 -0.0045567006 -0.0046015186 0.0023532491 0.0016083018 0.011385791 0.016021745 0.010922724
0.0009659886 -0.003610353 0.011167201 0.007799996 0.015524011 -0.00717179 0.009538491 -0.0052704504
0.023859823 -0.009677752 0.026246388 -0.0022122143 0.020528382 -0.015132115 0.013273796 0.008788297
0.021812271 -0.007990672 -0.030298693 -0.05612545 -0.031013893 -0.018343575 -0.022333765 -0.014046953
-0.015346437 -0.023418248 0.0035150375 -0.012212838 -0.00903232 -0.026323637 0.0051782588 -0.010050206
