tensorflow-code/single_fc_models/single_fc_model.tflite (tflite, 9016 bytes, 1 tensors)

MatMul i1 [4, 1960] scale=0.0016579576 zero_point=0
0	0x21	0.0547126
1	0x1e	0.049738728
2	0xdc	-0.05968647
3	0xe6	-0.043106895
4	0xcb	-0.08787175
5	0xe5	-0.044764854
6	0xd4	-0.07295013
7	0xee	-0.029843235
8	0xdf	-0.0547126
9	0xff	-0.0016579576
10	0xfa	-0.009947745
11	0x0c	0.01989549
12	0xfd	-0.0049738726
13	0x14	0.03315915
14	0x0d	0.021553447
15	0x15	0.034817107
16	0x07	0.011605703
17	0x11	0.028185278
18	0x04	0.0066318302
19	0x14	0.03315915
20	0x04	0.0066318302
21	0x18	0.03979098
22	0x0b	0.018237533
23	0x1c	0.046422813
24	0x00	0.0
25	0x13	0.031501193
26	0x05	0.008289788
27	0x1d	0.04808077
28	0x0f	0.024869364
29	0x25	0.06134443
30	0x15	0.034817107
31	0x30	0.07958196
32	0x22	0.056370556
33	0x35	0.08787175
34	0x2c	0.07295013
35	0x37	0.09118766
36	0x24	0.05968647
37	0x2e	0.07626605
38	0x1d	0.04808077
39	0x38	0.092845626
40	0x11	0.028185278
41	0x12	0.029843235
42	0xd6	-0.069634214
43	0xe2	-0.049738728
44	0xc6	-0.09616154
45	0xe4	-0.046422813
46	0xcc	-0.08621379
47	0xeb	-0.034817107
48	0xd5	-0.07129218
49	0xfa	-0.009947745
50	0xee	-0.029843235
51	0x00	0.0
52	0xf0	-0.026527321
53	0x0a	0.016579576
54	0xff	-0.0016579576
55	0x08	0.0132636605
56	0xf5	-0.018237533
57	0x05	0.008289788
58	0xf8	-0.0132636605
59	0x08	0.0132636605
60	0xf6	-0.016579576
61	0x0c	0.01989549
62	0xfe	-0.0033159151
63	0x13	0.031501193
64	0xf9	-0.011605703
65	0x0b	0.018237533
66	0xfd	-0.0049738726
67	0x15	0.034817107
68	0x04	0.0066318302
69	0x18	0.03979098
70	0x0b	0.018237533
71	0x24	0.05968647
72	0x17	0.038133025
73	0x28	0.0663183
74	0x1f	0.051396683
75	0x29	0.06797626
76	0x18	0.03979098
77	0x21	0.0547126
78	0x13	0.031501193
79	0x2c	0.07295013
80	0x0a	0.016579576
81	0x0c	0.01989549
82	0xd1	-0.077924006
83	0xe0	-0.053054642
84	0xc9	-0.09118766
85	0xe8	-0.03979098
86	0xd1	-0.077924006
87	0xf0	-0.026527321
88	0xdb	-0.06134443
89	0xfc	-0.0066318302
90	0xee	-0.029843235
91	0xfb	-0.008289788
92	0xec	-0.03315915
93	0x04	0.0066318302
94	0xfd	-0.0049738726
95	0x02	0.0033159151
96	0xf4	-0.01989549
97	0x00	0.0
98	0xf3	-0.021553447
99	0x01	0.0016579576
100	0xf8	-0.0132636605
101	0x0a	0.016579576
102	0xff	-0.0016579576
103	0x0b	0.018237533
104	0xf9	-0.011605703
105	0x06	0.009947745
106	0xfb	-0.008289788
107	0x0c	0.01989549
108	0x02	0.0033159151
109	0x10	0.026527321
110	0x09	0.014921618
111	0x19	0.04144894
112	0x15	0.034817107
113	0x1e	0.049738728
114	0x1a	0.043106895
115	0x1d	0.04808077
116	0x16	0.036475066
117	0x17	0.038133025
118	0x0f	0.024869364
119	0x22	0.056370556
120	0xf7	-0.014921618
121	0xfd	-0.0049738726
122	0xcf	-0.081239924
123	0xda	-0.063002385
124	0xca	-0.08952971
125	0xeb	-0.034817107
126	0xce	-0.08289788
127	0xee	-0.029843235
128	0xdc	-0.05968647
129	0xf5	-0.018237533
130	0xed	-0.031501193
131	0xed	-0.031501193
132	0xeb	-0.034817107
133	0xf7	-0.014921618
134	0xf8	-0.0132636605
135	0xfc	-0.0066318302
136	0xf2	-0.023211407
137	0xf6	-0.016579576
138	0xee	-0.029843235
139	0xfa	-0.009947745
140	0xf0	-0.026527321
141	0x06	0.009947745
142	0xfe	-0.0033159151
143	0x02	0.0033159151
144	0xf7	-0.014921618
145	0xfc	-0.0066318302
146	0xfd	-0.0049738726
147	0x0a	0.016579576
148	0x05	0.008289788
149	0x0c	0.01989549
150	0x07	0.011605703
151	0x0e	0.023211407
152	0x10	0.026527321
153	0x0e	0.023211407
154	0x16	0.036475066
155	0x15	0.034817107
156	0x12	0.029843235
157	0x0d	0.021553447
158	0x0d	0.021553447
159	0x18	0.03979098
160	0xed	-0.031501193
161	0xf4	-0.01989549
162	0xca	-0.08952971
163	0xd4	-0.07295013
164	0xcc	-0.08621379
165	0xe9	-0.038133025
166	0xd1	-0.077924006
167	0xe6	-0.043106895
168	0xd9	-0.06466035
169	0xec	-0.03315915
170	0xe9	-0.038133025
171	0xea	-0.036475066
172	0xe3	-0.04808077
173	0xf2	-0.023211407
174	0xf1	-0.024869364
175	0xfa	-0.009947745
176	0xec	-0.03315915
177	0xf5	-0.018237533
178	0xed	-0.031501193
179	0xfc	-0.0066318302
180	0xf3	-0.021553447
181	0x03	0.0049738726
182	0xfd	-0.0049738726
183	0xff	-0.0016579576
184	0xf6	-0.016579576
185	0xf9	-0.011605703
186	0xfe	-0.0033159151
187	0x03	0.0049738726
188	0x03	0.0049738726
189	0xfd	-0.0049738726
190	0x01	0.0016579576
191	0x02	0.0033159151
192	0x0a	0.016579576
193	0xfe	-0.0033159151
194	0x0f	0.024869364
195	0x05	0.008289788
196	0x06	0.009947745
197	0xf7	-0.014921618
198	0x04	0.0066318302
199	0x0b	0.018237533
200	0x0a	0.016579576
201	0x05	0.008289788
202	0xdd	-0.058028515
203	0xe3	-0.04808077
204	0xe6	-0.043106895
205	0xf5	-0.018237533
206	0xe8	-0.03979098
207	0xf5	-0.018237533
208	0xee	-0.029843235
209	0xf4	-0.01989549
210	0xf9	-0.011605703
211	0xf3	-0.021553447
212	0xf6	-0.016579576
213	0xfd	-0.0049738726
214	0xff	-0.0016579576
215	0xfa	-0.009947745
216	0xfc	-0.0066318302
217	0xfd	-0.0049738726
218	0xfd	-0.0049738726
219	0x01	0.0016579576
220	0x01	0.0016579576
221	0x07	0.011605703
222	0x0a	0.016579576
223	0x07	0.011605703
224	0x01	0.0016579576
225	0xfe	-0.0033159151
226	0x07	0.011605703
227	0x05	0.008289788
228	0x09	0.014921618
229	0xfc	-0.0066318302
230	0x06	0.009947745
231	0xfd	-0.0049738726
232	0x0e	0.023211407
233	0xfa	-0.009947745
234	0x10	0.026527321
235	0xff	-0.0016579576
236	0x0c	0.01989549
237	0xf7	-0.014921618
238	0x08	0.0132636605
239	0x05	0.008289788
240	0x0d	0.021553447
241	0xfb	-0.008289788
242	0xee	-0.029843235
243	0xde	-0.056370556
244	0xed	-0.031501193
245	0xf5	-0.018237533
246	0xf3	-0.021553447
247	0xf8	-0.0132636605
248	0xf7	-0.014921618
249	0xf2	-0.023211407
250	0x02	0.0033159151
251	0xf9	-0.011605703
252	0xfb	-0.008289788
253	0xf0	-0.026527321
254	0x03	0.0049738726
255	0xfa	-0.009947745
